node {
  name: "Placeholder"
  op: "Placeholder"
  attr {
    key: "dtype"
    value {
      type: DT_STRING
    }
  }
  attr {
    key: "shape"
    value {
      shape {
      }
    }
  }
}
node {
  name: "ReadFile"
  op: "ReadFile"
  input: "Placeholder"
}
node {
  name: "DecodeWav"
  op: "DecodeWav"
  input: "ReadFile"
  attr {
    key: "desired_channels"
    value {
      i: 1
    }
  }
  attr {
    key: "desired_samples"
    value {
      i: 16000
    }
  }
}
node {
  name: "Placeholder_1"
  op: "Placeholder"
  attr {
    key: "dtype"
    value {
      type: DT_FLOAT
    }
  }
  attr {
    key: "shape"
    value {
      shape {
      }
    }
  }
}
node {
  name: "Mul"
  op: "Mul"
  input: "DecodeWav"
  input: "Placeholder_1"
  attr {
    key: "T"
    value {
      type: DT_FLOAT
    }
  }
}
node {
  name: "Placeholder_2"
  op: "Placeholder"
  attr {
    key: "dtype"
    value {
      type: DT_INT32
    }
  }
  attr {
    key: "shape"
    value {
      shape {
        dim {
          size: 2
        }
        dim {
          size: 2
        }
      }
    }
  }
}
node {
  name: "Placeholder_3"
  op: "Placeholder"
  attr {
    key: "dtype"
    value {
      type: DT_INT32
    }
  }
  attr {
    key: "shape"
    value {
      shape {
        dim {
          size: 2
        }
      }
    }
  }
}
node {
  name: "Pad"
  op: "Pad"
  input: "Mul"
  input: "Placeholder_2"
  attr {
    key: "T"
    value {
      type: DT_FLOAT
    }
  }
  attr {
    key: "Tpaddings"
    value {
      type: DT_INT32
    }
  }
}
node {
  name: "Slice/size"
  op: "Const"
  attr {
    key: "dtype"
    value {
      type: DT_INT32
    }
  }
  attr {
    key: "value"
    value {
      tensor {
        dtype: DT_INT32
        tensor_shape {
          dim {
            size: 2
          }
        }
        tensor_content: "\200>\000\000\377\377\377\377"
      }
    }
  }
}
node {
  name: "Slice"
  op: "Slice"
  input: "Pad"
  input: "Placeholder_3"
  input: "Slice/size"
  attr {
    key: "Index"
    value {
      type: DT_INT32
    }
  }
  attr {
    key: "T"
    value {
      type: DT_FLOAT
    }
  }
}
node {
  name: "Placeholder_4"
  op: "Placeholder"
  attr {
    key: "dtype"
    value {
      type: DT_FLOAT
    }
  }
  attr {
    key: "shape"
    value {
      shape {
        dim {
          size: 16000
        }
        dim {
          size: 1
        }
      }
    }
  }
}
node {
  name: "Placeholder_5"
  op: "Placeholder"
  attr {
    key: "dtype"
    value {
      type: DT_FLOAT
    }
  }
  attr {
    key: "shape"
    value {
      shape {
      }
    }
  }
}
node {
  name: "Mul_1"
  op: "Mul"
  input: "Placeholder_4"
  input: "Placeholder_5"
  attr {
    key: "T"
    value {
      type: DT_FLOAT
    }
  }
}
node {
  name: "Add"
  op: "Add"
  input: "Mul_1"
  input: "Slice"
  attr {
    key: "T"
    value {
      type: DT_FLOAT
    }
  }
}
node {
  name: "clip_by_value/Minimum/y"
  op: "Const"
  attr {
    key: "dtype"
    value {
      type: DT_FLOAT
    }
  }
  attr {
    key: "value"
    value {
      tensor {
        dtype: DT_FLOAT
        tensor_shape {
        }
        float_val: 1.0
      }
    }
  }
}
node {
  name: "clip_by_value/Minimum"
  op: "Minimum"
  input: "Add"
  input: "clip_by_value/Minimum/y"
  attr {
    key: "T"
    value {
      type: DT_FLOAT
    }
  }
}
node {
  name: "clip_by_value/y"
  op: "Const"
  attr {
    key: "dtype"
    value {
      type: DT_FLOAT
    }
  }
  attr {
    key: "value"
    value {
      tensor {
        dtype: DT_FLOAT
        tensor_shape {
        }
        float_val: -1.0
      }
    }
  }
}
node {
  name: "clip_by_value"
  op: "Maximum"
  input: "clip_by_value/Minimum"
  input: "clip_by_value/y"
  attr {
    key: "T"
    value {
      type: DT_FLOAT
    }
  }
}
node {
  name: "AudioSpectrogram"
  op: "AudioSpectrogram"
  input: "clip_by_value"
  attr {
    key: "magnitude_squared"
    value {
      b: true
    }
  }
  attr {
    key: "stride"
    value {
      i: 320
    }
  }
  attr {
    key: "window_size"
    value {
      i: 640
    }
  }
}
node {
  name: "Mfcc"
  op: "Mfcc"
  input: "AudioSpectrogram"
  input: "DecodeWav:1"
  attr {
    key: "dct_coefficient_count"
    value {
      i: 10
    }
  }
  attr {
    key: "filterbank_channel_count"
    value {
      i: 40
    }
  }
  attr {
    key: "lower_frequency_limit"
    value {
      f: 20.0
    }
  }
  attr {
    key: "upper_frequency_limit"
    value {
      f: 4000.0
    }
  }
}
node {
  name: "fingerprint_input"
  op: "Placeholder"
  attr {
    key: "dtype"
    value {
      type: DT_FLOAT
    }
  }
  attr {
    key: "shape"
    value {
      shape {
        dim {
          size: -1
        }
        dim {
          size: 490
        }
      }
    }
  }
}
node {
  name: "dropout_prob"
  op: "Placeholder"
  attr {
    key: "dtype"
    value {
      type: DT_FLOAT
    }
  }
  attr {
    key: "shape"
    value {
      shape {
        unknown_rank: true
      }
    }
  }
}
node {
  name: "Reshape/shape"
  op: "Const"
  attr {
    key: "dtype"
    value {
      type: DT_INT32
    }
  }
  attr {
    key: "value"
    value {
      tensor {
        dtype: DT_INT32
        tensor_shape {
          dim {
            size: 4
          }
        }
        tensor_content: "\377\377\377\3771\000\000\000\n\000\000\000\001\000\000\000"
      }
    }
  }
}
node {
  name: "Reshape"
  op: "Reshape"
  input: "fingerprint_input"
  input: "Reshape/shape"
  attr {
    key: "T"
    value {
      type: DT_FLOAT
    }
  }
  attr {
    key: "Tshape"
    value {
      type: DT_INT32
    }
  }
}
node {
  name: "DS-CNN/conv_1/weights/Initializer/random_uniform/shape"
  op: "Const"
  attr {
    key: "_class"
    value {
      list {
        s: "loc:@DS-CNN/conv_1/weights"
      }
    }
  }
  attr {
    key: "dtype"
    value {
      type: DT_INT32
    }
  }
  attr {
    key: "value"
    value {
      tensor {
        dtype: DT_INT32
        tensor_shape {
          dim {
            size: 4
          }
        }
        tensor_content: "\n\000\000\000\004\000\000\000\001\000\000\000@\000\000\000"
      }
    }
  }
}
node {
  name: "DS-CNN/conv_1/weights/Initializer/random_uniform/min"
  op: "Const"
  attr {
    key: "_class"
    value {
      list {
        s: "loc:@DS-CNN/conv_1/weights"
      }
    }
  }
  attr {
    key: "dtype"
    value {
      type: DT_FLOAT
    }
  }
  attr {
    key: "value"
    value {
      tensor {
        dtype: DT_FLOAT
        tensor_shape {
        }
        float_val: -0.0480384454131
      }
    }
  }
}
node {
  name: "DS-CNN/conv_1/weights/Initializer/random_uniform/max"
  op: "Const"
  attr {
    key: "_class"
    value {
      list {
        s: "loc:@DS-CNN/conv_1/weights"
      }
    }
  }
  attr {
    key: "dtype"
    value {
      type: DT_FLOAT
    }
  }
  attr {
    key: "value"
    value {
      tensor {
        dtype: DT_FLOAT
        tensor_shape {
        }
        float_val: 0.0480384454131
      }
    }
  }
}
node {
  name: "DS-CNN/conv_1/weights/Initializer/random_uniform/RandomUniform"
  op: "RandomUniform"
  input: "DS-CNN/conv_1/weights/Initializer/random_uniform/shape"
  attr {
    key: "T"
    value {
      type: DT_INT32
    }
  }
  attr {
    key: "_class"
    value {
      list {
        s: "loc:@DS-CNN/conv_1/weights"
      }
    }
  }
  attr {
    key: "dtype"
    value {
      type: DT_FLOAT
    }
  }
  attr {
    key: "seed"
    value {
      i: 0
    }
  }
  attr {
    key: "seed2"
    value {
      i: 0
    }
  }
}
node {
  name: "DS-CNN/conv_1/weights/Initializer/random_uniform/sub"
  op: "Sub"
  input: "DS-CNN/conv_1/weights/Initializer/random_uniform/max"
  input: "DS-CNN/conv_1/weights/Initializer/random_uniform/min"
  attr {
    key: "T"
    value {
      type: DT_FLOAT
    }
  }
  attr {
    key: "_class"
    value {
      list {
        s: "loc:@DS-CNN/conv_1/weights"
      }
    }
  }
}
node {
  name: "DS-CNN/conv_1/weights/Initializer/random_uniform/mul"
  op: "Mul"
  input: "DS-CNN/conv_1/weights/Initializer/random_uniform/RandomUniform"
  input: "DS-CNN/conv_1/weights/Initializer/random_uniform/sub"
  attr {
    key: "T"
    value {
      type: DT_FLOAT
    }
  }
  attr {
    key: "_class"
    value {
      list {
        s: "loc:@DS-CNN/conv_1/weights"
      }
    }
  }
}
node {
  name: "DS-CNN/conv_1/weights/Initializer/random_uniform"
  op: "Add"
  input: "DS-CNN/conv_1/weights/Initializer/random_uniform/mul"
  input: "DS-CNN/conv_1/weights/Initializer/random_uniform/min"
  attr {
    key: "T"
    value {
      type: DT_FLOAT
    }
  }
  attr {
    key: "_class"
    value {
      list {
        s: "loc:@DS-CNN/conv_1/weights"
      }
    }
  }
}
node {
  name: "DS-CNN/conv_1/weights"
  op: "VariableV2"
  attr {
    key: "_class"
    value {
      list {
        s: "loc:@DS-CNN/conv_1/weights"
      }
    }
  }
  attr {
    key: "container"
    value {
      s: ""
    }
  }
  attr {
    key: "dtype"
    value {
      type: DT_FLOAT
    }
  }
  attr {
    key: "shape"
    value {
      shape {
        dim {
          size: 10
        }
        dim {
          size: 4
        }
        dim {
          size: 1
        }
        dim {
          size: 64
        }
      }
    }
  }
  attr {
    key: "shared_name"
    value {
      s: ""
    }
  }
}
node {
  name: "DS-CNN/conv_1/weights/Assign"
  op: "Assign"
  input: "DS-CNN/conv_1/weights"
  input: "DS-CNN/conv_1/weights/Initializer/random_uniform"
  attr {
    key: "T"
    value {
      type: DT_FLOAT
    }
  }
  attr {
    key: "_class"
    value {
      list {
        s: "loc:@DS-CNN/conv_1/weights"
      }
    }
  }
  attr {
    key: "use_locking"
    value {
      b: true
    }
  }
  attr {
    key: "validate_shape"
    value {
      b: true
    }
  }
}
node {
  name: "DS-CNN/conv_1/weights/read"
  op: "Identity"
  input: "DS-CNN/conv_1/weights"
  attr {
    key: "T"
    value {
      type: DT_FLOAT
    }
  }
  attr {
    key: "_class"
    value {
      list {
        s: "loc:@DS-CNN/conv_1/weights"
      }
    }
  }
}
node {
  name: "DS-CNN/conv_1/biases/Initializer/zeros"
  op: "Const"
  attr {
    key: "_class"
    value {
      list {
        s: "loc:@DS-CNN/conv_1/biases"
      }
    }
  }
  attr {
    key: "dtype"
    value {
      type: DT_FLOAT
    }
  }
  attr {
    key: "value"
    value {
      tensor {
        dtype: DT_FLOAT
        tensor_shape {
          dim {
            size: 64
          }
        }
        float_val: 0.0
      }
    }
  }
}
node {
  name: "DS-CNN/conv_1/biases"
  op: "VariableV2"
  attr {
    key: "_class"
    value {
      list {
        s: "loc:@DS-CNN/conv_1/biases"
      }
    }
  }
  attr {
    key: "container"
    value {
      s: ""
    }
  }
  attr {
    key: "dtype"
    value {
      type: DT_FLOAT
    }
  }
  attr {
    key: "shape"
    value {
      shape {
        dim {
          size: 64
        }
      }
    }
  }
  attr {
    key: "shared_name"
    value {
      s: ""
    }
  }
}
node {
  name: "DS-CNN/conv_1/biases/Assign"
  op: "Assign"
  input: "DS-CNN/conv_1/biases"
  input: "DS-CNN/conv_1/biases/Initializer/zeros"
  attr {
    key: "T"
    value {
      type: DT_FLOAT
    }
  }
  attr {
    key: "_class"
    value {
      list {
        s: "loc:@DS-CNN/conv_1/biases"
      }
    }
  }
  attr {
    key: "use_locking"
    value {
      b: true
    }
  }
  attr {
    key: "validate_shape"
    value {
      b: true
    }
  }
}
node {
  name: "DS-CNN/conv_1/biases/read"
  op: "Identity"
  input: "DS-CNN/conv_1/biases"
  attr {
    key: "T"
    value {
      type: DT_FLOAT
    }
  }
  attr {
    key: "_class"
    value {
      list {
        s: "loc:@DS-CNN/conv_1/biases"
      }
    }
  }
}
node {
  name: "DS-CNN/conv_1/dilation_rate"
  op: "Const"
  attr {
    key: "dtype"
    value {
      type: DT_INT32
    }
  }
  attr {
    key: "value"
    value {
      tensor {
        dtype: DT_INT32
        tensor_shape {
          dim {
            size: 2
          }
        }
        tensor_content: "\001\000\000\000\001\000\000\000"
      }
    }
  }
}
node {
  name: "DS-CNN/conv_1/Conv2D"
  op: "Conv2D"
  input: "Reshape"
  input: "DS-CNN/conv_1/weights/read"
  attr {
    key: "T"
    value {
      type: DT_FLOAT
    }
  }
  attr {
    key: "data_format"
    value {
      s: "NHWC"
    }
  }
  attr {
    key: "padding"
    value {
      s: "SAME"
    }
  }
  attr {
    key: "strides"
    value {
      list {
        i: 1
        i: 2
        i: 2
        i: 1
      }
    }
  }
  attr {
    key: "use_cudnn_on_gpu"
    value {
      b: true
    }
  }
}
node {
  name: "DS-CNN/conv_1/BiasAdd"
  op: "BiasAdd"
  input: "DS-CNN/conv_1/Conv2D"
  input: "DS-CNN/conv_1/biases/read"
  attr {
    key: "T"
    value {
      type: DT_FLOAT
    }
  }
  attr {
    key: "data_format"
    value {
      s: "NHWC"
    }
  }
}
node {
  name: "DS-CNN/conv_1/batch_norm/beta/Initializer/zeros"
  op: "Const"
  attr {
    key: "_class"
    value {
      list {
        s: "loc:@DS-CNN/conv_1/batch_norm/beta"
      }
    }
  }
  attr {
    key: "dtype"
    value {
      type: DT_FLOAT
    }
  }
  attr {
    key: "value"
    value {
      tensor {
        dtype: DT_FLOAT
        tensor_shape {
          dim {
            size: 64
          }
        }
        float_val: 0.0
      }
    }
  }
}
node {
  name: "DS-CNN/conv_1/batch_norm/beta"
  op: "VariableV2"
  attr {
    key: "_class"
    value {
      list {
        s: "loc:@DS-CNN/conv_1/batch_norm/beta"
      }
    }
  }
  attr {
    key: "container"
    value {
      s: ""
    }
  }
  attr {
    key: "dtype"
    value {
      type: DT_FLOAT
    }
  }
  attr {
    key: "shape"
    value {
      shape {
        dim {
          size: 64
        }
      }
    }
  }
  attr {
    key: "shared_name"
    value {
      s: ""
    }
  }
}
node {
  name: "DS-CNN/conv_1/batch_norm/beta/Assign"
  op: "Assign"
  input: "DS-CNN/conv_1/batch_norm/beta"
  input: "DS-CNN/conv_1/batch_norm/beta/Initializer/zeros"
  attr {
    key: "T"
    value {
      type: DT_FLOAT
    }
  }
  attr {
    key: "_class"
    value {
      list {
        s: "loc:@DS-CNN/conv_1/batch_norm/beta"
      }
    }
  }
  attr {
    key: "use_locking"
    value {
      b: true
    }
  }
  attr {
    key: "validate_shape"
    value {
      b: true
    }
  }
}
node {
  name: "DS-CNN/conv_1/batch_norm/beta/read"
  op: "Identity"
  input: "DS-CNN/conv_1/batch_norm/beta"
  attr {
    key: "T"
    value {
      type: DT_FLOAT
    }
  }
  attr {
    key: "_class"
    value {
      list {
        s: "loc:@DS-CNN/conv_1/batch_norm/beta"
      }
    }
  }
}
node {
  name: "DS-CNN/conv_1/batch_norm/Const"
  op: "Const"
  attr {
    key: "dtype"
    value {
      type: DT_FLOAT
    }
  }
  attr {
    key: "value"
    value {
      tensor {
        dtype: DT_FLOAT
        tensor_shape {
          dim {
            size: 64
          }
        }
        float_val: 1.0
      }
    }
  }
}
node {
  name: "DS-CNN/conv_1/batch_norm/moving_mean/Initializer/zeros"
  op: "Const"
  attr {
    key: "_class"
    value {
      list {
        s: "loc:@DS-CNN/conv_1/batch_norm/moving_mean"
      }
    }
  }
  attr {
    key: "dtype"
    value {
      type: DT_FLOAT
    }
  }
  attr {
    key: "value"
    value {
      tensor {
        dtype: DT_FLOAT
        tensor_shape {
          dim {
            size: 64
          }
        }
        float_val: 0.0
      }
    }
  }
}
node {
  name: "DS-CNN/conv_1/batch_norm/moving_mean"
  op: "VariableV2"
  attr {
    key: "_class"
    value {
      list {
        s: "loc:@DS-CNN/conv_1/batch_norm/moving_mean"
      }
    }
  }
  attr {
    key: "container"
    value {
      s: ""
    }
  }
  attr {
    key: "dtype"
    value {
      type: DT_FLOAT
    }
  }
  attr {
    key: "shape"
    value {
      shape {
        dim {
          size: 64
        }
      }
    }
  }
  attr {
    key: "shared_name"
    value {
      s: ""
    }
  }
}
node {
  name: "DS-CNN/conv_1/batch_norm/moving_mean/Assign"
  op: "Assign"
  input: "DS-CNN/conv_1/batch_norm/moving_mean"
  input: "DS-CNN/conv_1/batch_norm/moving_mean/Initializer/zeros"
  attr {
    key: "T"
    value {
      type: DT_FLOAT
    }
  }
  attr {
    key: "_class"
    value {
      list {
        s: "loc:@DS-CNN/conv_1/batch_norm/moving_mean"
      }
    }
  }
  attr {
    key: "use_locking"
    value {
      b: true
    }
  }
  attr {
    key: "validate_shape"
    value {
      b: true
    }
  }
}
node {
  name: "DS-CNN/conv_1/batch_norm/moving_mean/read"
  op: "Identity"
  input: "DS-CNN/conv_1/batch_norm/moving_mean"
  attr {
    key: "T"
    value {
      type: DT_FLOAT
    }
  }
  attr {
    key: "_class"
    value {
      list {
        s: "loc:@DS-CNN/conv_1/batch_norm/moving_mean"
      }
    }
  }
}
node {
  name: "DS-CNN/conv_1/batch_norm/moving_variance/Initializer/ones"
  op: "Const"
  attr {
    key: "_class"
    value {
      list {
        s: "loc:@DS-CNN/conv_1/batch_norm/moving_variance"
      }
    }
  }
  attr {
    key: "dtype"
    value {
      type: DT_FLOAT
    }
  }
  attr {
    key: "value"
    value {
      tensor {
        dtype: DT_FLOAT
        tensor_shape {
          dim {
            size: 64
          }
        }
        float_val: 1.0
      }
    }
  }
}
node {
  name: "DS-CNN/conv_1/batch_norm/moving_variance"
  op: "VariableV2"
  attr {
    key: "_class"
    value {
      list {
        s: "loc:@DS-CNN/conv_1/batch_norm/moving_variance"
      }
    }
  }
  attr {
    key: "container"
    value {
      s: ""
    }
  }
  attr {
    key: "dtype"
    value {
      type: DT_FLOAT
    }
  }
  attr {
    key: "shape"
    value {
      shape {
        dim {
          size: 64
        }
      }
    }
  }
  attr {
    key: "shared_name"
    value {
      s: ""
    }
  }
}
node {
  name: "DS-CNN/conv_1/batch_norm/moving_variance/Assign"
  op: "Assign"
  input: "DS-CNN/conv_1/batch_norm/moving_variance"
  input: "DS-CNN/conv_1/batch_norm/moving_variance/Initializer/ones"
  attr {
    key: "T"
    value {
      type: DT_FLOAT
    }
  }
  attr {
    key: "_class"
    value {
      list {
        s: "loc:@DS-CNN/conv_1/batch_norm/moving_variance"
      }
    }
  }
  attr {
    key: "use_locking"
    value {
      b: true
    }
  }
  attr {
    key: "validate_shape"
    value {
      b: true
    }
  }
}
node {
  name: "DS-CNN/conv_1/batch_norm/moving_variance/read"
  op: "Identity"
  input: "DS-CNN/conv_1/batch_norm/moving_variance"
  attr {
    key: "T"
    value {
      type: DT_FLOAT
    }
  }
  attr {
    key: "_class"
    value {
      list {
        s: "loc:@DS-CNN/conv_1/batch_norm/moving_variance"
      }
    }
  }
}
node {
  name: "DS-CNN/conv_1/batch_norm/Const_1"
  op: "Const"
  attr {
    key: "dtype"
    value {
      type: DT_FLOAT
    }
  }
  attr {
    key: "value"
    value {
      tensor {
        dtype: DT_FLOAT
        tensor_shape {
          dim {
          }
        }
      }
    }
  }
}
node {
  name: "DS-CNN/conv_1/batch_norm/Const_2"
  op: "Const"
  attr {
    key: "dtype"
    value {
      type: DT_FLOAT
    }
  }
  attr {
    key: "value"
    value {
      tensor {
        dtype: DT_FLOAT
        tensor_shape {
          dim {
          }
        }
      }
    }
  }
}
node {
  name: "DS-CNN/conv_1/batch_norm/FusedBatchNorm"
  op: "FusedBatchNorm"
  input: "DS-CNN/conv_1/BiasAdd"
  input: "DS-CNN/conv_1/batch_norm/Const"
  input: "DS-CNN/conv_1/batch_norm/beta/read"
  input: "DS-CNN/conv_1/batch_norm/Const_1"
  input: "DS-CNN/conv_1/batch_norm/Const_2"
  attr {
    key: "T"
    value {
      type: DT_FLOAT
    }
  }
  attr {
    key: "data_format"
    value {
      s: "NHWC"
    }
  }
  attr {
    key: "epsilon"
    value {
      f: 0.0010000000475
    }
  }
  attr {
    key: "is_training"
    value {
      b: true
    }
  }
}
node {
  name: "DS-CNN/conv_1/batch_norm/AssignMovingAvg/decay"
  op: "Const"
  attr {
    key: "_class"
    value {
      list {
        s: "loc:@DS-CNN/conv_1/batch_norm/moving_mean"
      }
    }
  }
  attr {
    key: "dtype"
    value {
      type: DT_FLOAT
    }
  }
  attr {
    key: "value"
    value {
      tensor {
        dtype: DT_FLOAT
        tensor_shape {
        }
        float_val: 0.0399999991059
      }
    }
  }
}
node {
  name: "DS-CNN/conv_1/batch_norm/AssignMovingAvg/sub"
  op: "Sub"
  input: "DS-CNN/conv_1/batch_norm/moving_mean/read"
  input: "DS-CNN/conv_1/batch_norm/FusedBatchNorm:1"
  attr {
    key: "T"
    value {
      type: DT_FLOAT
    }
  }
  attr {
    key: "_class"
    value {
      list {
        s: "loc:@DS-CNN/conv_1/batch_norm/moving_mean"
      }
    }
  }
}
node {
  name: "DS-CNN/conv_1/batch_norm/AssignMovingAvg/mul"
  op: "Mul"
  input: "DS-CNN/conv_1/batch_norm/AssignMovingAvg/sub"
  input: "DS-CNN/conv_1/batch_norm/AssignMovingAvg/decay"
  attr {
    key: "T"
    value {
      type: DT_FLOAT
    }
  }
  attr {
    key: "_class"
    value {
      list {
        s: "loc:@DS-CNN/conv_1/batch_norm/moving_mean"
      }
    }
  }
}
node {
  name: "DS-CNN/conv_1/batch_norm/AssignMovingAvg"
  op: "AssignSub"
  input: "DS-CNN/conv_1/batch_norm/moving_mean"
  input: "DS-CNN/conv_1/batch_norm/AssignMovingAvg/mul"
  attr {
    key: "T"
    value {
      type: DT_FLOAT
    }
  }
  attr {
    key: "_class"
    value {
      list {
        s: "loc:@DS-CNN/conv_1/batch_norm/moving_mean"
      }
    }
  }
  attr {
    key: "use_locking"
    value {
      b: false
    }
  }
}
node {
  name: "DS-CNN/conv_1/batch_norm/AssignMovingAvg_1/decay"
  op: "Const"
  attr {
    key: "_class"
    value {
      list {
        s: "loc:@DS-CNN/conv_1/batch_norm/moving_variance"
      }
    }
  }
  attr {
    key: "dtype"
    value {
      type: DT_FLOAT
    }
  }
  attr {
    key: "value"
    value {
      tensor {
        dtype: DT_FLOAT
        tensor_shape {
        }
        float_val: 0.0399999991059
      }
    }
  }
}
node {
  name: "DS-CNN/conv_1/batch_norm/AssignMovingAvg_1/sub"
  op: "Sub"
  input: "DS-CNN/conv_1/batch_norm/moving_variance/read"
  input: "DS-CNN/conv_1/batch_norm/FusedBatchNorm:2"
  attr {
    key: "T"
    value {
      type: DT_FLOAT
    }
  }
  attr {
    key: "_class"
    value {
      list {
        s: "loc:@DS-CNN/conv_1/batch_norm/moving_variance"
      }
    }
  }
}
node {
  name: "DS-CNN/conv_1/batch_norm/AssignMovingAvg_1/mul"
  op: "Mul"
  input: "DS-CNN/conv_1/batch_norm/AssignMovingAvg_1/sub"
  input: "DS-CNN/conv_1/batch_norm/AssignMovingAvg_1/decay"
  attr {
    key: "T"
    value {
      type: DT_FLOAT
    }
  }
  attr {
    key: "_class"
    value {
      list {
        s: "loc:@DS-CNN/conv_1/batch_norm/moving_variance"
      }
    }
  }
}
node {
  name: "DS-CNN/conv_1/batch_norm/AssignMovingAvg_1"
  op: "AssignSub"
  input: "DS-CNN/conv_1/batch_norm/moving_variance"
  input: "DS-CNN/conv_1/batch_norm/AssignMovingAvg_1/mul"
  attr {
    key: "T"
    value {
      type: DT_FLOAT
    }
  }
  attr {
    key: "_class"
    value {
      list {
        s: "loc:@DS-CNN/conv_1/batch_norm/moving_variance"
      }
    }
  }
  attr {
    key: "use_locking"
    value {
      b: false
    }
  }
}
node {
  name: "DS-CNN/conv_1/batch_norm/Identity"
  op: "Identity"
  input: "DS-CNN/conv_1/batch_norm/FusedBatchNorm"
  input: "^DS-CNN/conv_1/batch_norm/AssignMovingAvg"
  input: "^DS-CNN/conv_1/batch_norm/AssignMovingAvg_1"
  attr {
    key: "T"
    value {
      type: DT_FLOAT
    }
  }
}
node {
  name: "DS-CNN/conv_1/batch_norm/Relu6"
  op: "Relu6"
  input: "DS-CNN/conv_1/batch_norm/Identity"
  attr {
    key: "T"
    value {
      type: DT_FLOAT
    }
  }
}
node {
  name: "DS-CNN/conv_ds_1/exp_conv/weights/Initializer/random_uniform/shape"
  op: "Const"
  attr {
    key: "_class"
    value {
      list {
        s: "loc:@DS-CNN/conv_ds_1/exp_conv/weights"
      }
    }
  }
  attr {
    key: "dtype"
    value {
      type: DT_INT32
    }
  }
  attr {
    key: "value"
    value {
      tensor {
        dtype: DT_INT32
        tensor_shape {
          dim {
            size: 4
          }
        }
        tensor_content: "\001\000\000\000\001\000\000\000@\000\000\000\200\001\000\000"
      }
    }
  }
}
node {
  name: "DS-CNN/conv_ds_1/exp_conv/weights/Initializer/random_uniform/min"
  op: "Const"
  attr {
    key: "_class"
    value {
      list {
        s: "loc:@DS-CNN/conv_ds_1/exp_conv/weights"
      }
    }
  }
  attr {
    key: "dtype"
    value {
      type: DT_FLOAT
    }
  }
  attr {
    key: "value"
    value {
      tensor {
        dtype: DT_FLOAT
        tensor_shape {
        }
        float_val: -0.115727514029
      }
    }
  }
}
node {
  name: "DS-CNN/conv_ds_1/exp_conv/weights/Initializer/random_uniform/max"
  op: "Const"
  attr {
    key: "_class"
    value {
      list {
        s: "loc:@DS-CNN/conv_ds_1/exp_conv/weights"
      }
    }
  }
  attr {
    key: "dtype"
    value {
      type: DT_FLOAT
    }
  }
  attr {
    key: "value"
    value {
      tensor {
        dtype: DT_FLOAT
        tensor_shape {
        }
        float_val: 0.115727514029
      }
    }
  }
}
node {
  name: "DS-CNN/conv_ds_1/exp_conv/weights/Initializer/random_uniform/RandomUniform"
  op: "RandomUniform"
  input: "DS-CNN/conv_ds_1/exp_conv/weights/Initializer/random_uniform/shape"
  attr {
    key: "T"
    value {
      type: DT_INT32
    }
  }
  attr {
    key: "_class"
    value {
      list {
        s: "loc:@DS-CNN/conv_ds_1/exp_conv/weights"
      }
    }
  }
  attr {
    key: "dtype"
    value {
      type: DT_FLOAT
    }
  }
  attr {
    key: "seed"
    value {
      i: 0
    }
  }
  attr {
    key: "seed2"
    value {
      i: 0
    }
  }
}
node {
  name: "DS-CNN/conv_ds_1/exp_conv/weights/Initializer/random_uniform/sub"
  op: "Sub"
  input: "DS-CNN/conv_ds_1/exp_conv/weights/Initializer/random_uniform/max"
  input: "DS-CNN/conv_ds_1/exp_conv/weights/Initializer/random_uniform/min"
  attr {
    key: "T"
    value {
      type: DT_FLOAT
    }
  }
  attr {
    key: "_class"
    value {
      list {
        s: "loc:@DS-CNN/conv_ds_1/exp_conv/weights"
      }
    }
  }
}
node {
  name: "DS-CNN/conv_ds_1/exp_conv/weights/Initializer/random_uniform/mul"
  op: "Mul"
  input: "DS-CNN/conv_ds_1/exp_conv/weights/Initializer/random_uniform/RandomUniform"
  input: "DS-CNN/conv_ds_1/exp_conv/weights/Initializer/random_uniform/sub"
  attr {
    key: "T"
    value {
      type: DT_FLOAT
    }
  }
  attr {
    key: "_class"
    value {
      list {
        s: "loc:@DS-CNN/conv_ds_1/exp_conv/weights"
      }
    }
  }
}
node {
  name: "DS-CNN/conv_ds_1/exp_conv/weights/Initializer/random_uniform"
  op: "Add"
  input: "DS-CNN/conv_ds_1/exp_conv/weights/Initializer/random_uniform/mul"
  input: "DS-CNN/conv_ds_1/exp_conv/weights/Initializer/random_uniform/min"
  attr {
    key: "T"
    value {
      type: DT_FLOAT
    }
  }
  attr {
    key: "_class"
    value {
      list {
        s: "loc:@DS-CNN/conv_ds_1/exp_conv/weights"
      }
    }
  }
}
node {
  name: "DS-CNN/conv_ds_1/exp_conv/weights"
  op: "VariableV2"
  attr {
    key: "_class"
    value {
      list {
        s: "loc:@DS-CNN/conv_ds_1/exp_conv/weights"
      }
    }
  }
  attr {
    key: "container"
    value {
      s: ""
    }
  }
  attr {
    key: "dtype"
    value {
      type: DT_FLOAT
    }
  }
  attr {
    key: "shape"
    value {
      shape {
        dim {
          size: 1
        }
        dim {
          size: 1
        }
        dim {
          size: 64
        }
        dim {
          size: 384
        }
      }
    }
  }
  attr {
    key: "shared_name"
    value {
      s: ""
    }
  }
}
node {
  name: "DS-CNN/conv_ds_1/exp_conv/weights/Assign"
  op: "Assign"
  input: "DS-CNN/conv_ds_1/exp_conv/weights"
  input: "DS-CNN/conv_ds_1/exp_conv/weights/Initializer/random_uniform"
  attr {
    key: "T"
    value {
      type: DT_FLOAT
    }
  }
  attr {
    key: "_class"
    value {
      list {
        s: "loc:@DS-CNN/conv_ds_1/exp_conv/weights"
      }
    }
  }
  attr {
    key: "use_locking"
    value {
      b: true
    }
  }
  attr {
    key: "validate_shape"
    value {
      b: true
    }
  }
}
node {
  name: "DS-CNN/conv_ds_1/exp_conv/weights/read"
  op: "Identity"
  input: "DS-CNN/conv_ds_1/exp_conv/weights"
  attr {
    key: "T"
    value {
      type: DT_FLOAT
    }
  }
  attr {
    key: "_class"
    value {
      list {
        s: "loc:@DS-CNN/conv_ds_1/exp_conv/weights"
      }
    }
  }
}
node {
  name: "DS-CNN/conv_ds_1/exp_conv/biases/Initializer/zeros"
  op: "Const"
  attr {
    key: "_class"
    value {
      list {
        s: "loc:@DS-CNN/conv_ds_1/exp_conv/biases"
      }
    }
  }
  attr {
    key: "dtype"
    value {
      type: DT_FLOAT
    }
  }
  attr {
    key: "value"
    value {
      tensor {
        dtype: DT_FLOAT
        tensor_shape {
          dim {
            size: 384
          }
        }
        float_val: 0.0
      }
    }
  }
}
node {
  name: "DS-CNN/conv_ds_1/exp_conv/biases"
  op: "VariableV2"
  attr {
    key: "_class"
    value {
      list {
        s: "loc:@DS-CNN/conv_ds_1/exp_conv/biases"
      }
    }
  }
  attr {
    key: "container"
    value {
      s: ""
    }
  }
  attr {
    key: "dtype"
    value {
      type: DT_FLOAT
    }
  }
  attr {
    key: "shape"
    value {
      shape {
        dim {
          size: 384
        }
      }
    }
  }
  attr {
    key: "shared_name"
    value {
      s: ""
    }
  }
}
node {
  name: "DS-CNN/conv_ds_1/exp_conv/biases/Assign"
  op: "Assign"
  input: "DS-CNN/conv_ds_1/exp_conv/biases"
  input: "DS-CNN/conv_ds_1/exp_conv/biases/Initializer/zeros"
  attr {
    key: "T"
    value {
      type: DT_FLOAT
    }
  }
  attr {
    key: "_class"
    value {
      list {
        s: "loc:@DS-CNN/conv_ds_1/exp_conv/biases"
      }
    }
  }
  attr {
    key: "use_locking"
    value {
      b: true
    }
  }
  attr {
    key: "validate_shape"
    value {
      b: true
    }
  }
}
node {
  name: "DS-CNN/conv_ds_1/exp_conv/biases/read"
  op: "Identity"
  input: "DS-CNN/conv_ds_1/exp_conv/biases"
  attr {
    key: "T"
    value {
      type: DT_FLOAT
    }
  }
  attr {
    key: "_class"
    value {
      list {
        s: "loc:@DS-CNN/conv_ds_1/exp_conv/biases"
      }
    }
  }
}
node {
  name: "DS-CNN/conv_ds_1/exp_conv/dilation_rate"
  op: "Const"
  attr {
    key: "dtype"
    value {
      type: DT_INT32
    }
  }
  attr {
    key: "value"
    value {
      tensor {
        dtype: DT_INT32
        tensor_shape {
          dim {
            size: 2
          }
        }
        tensor_content: "\001\000\000\000\001\000\000\000"
      }
    }
  }
}
node {
  name: "DS-CNN/conv_ds_1/exp_conv/Conv2D"
  op: "Conv2D"
  input: "DS-CNN/conv_1/batch_norm/Relu6"
  input: "DS-CNN/conv_ds_1/exp_conv/weights/read"
  attr {
    key: "T"
    value {
      type: DT_FLOAT
    }
  }
  attr {
    key: "data_format"
    value {
      s: "NHWC"
    }
  }
  attr {
    key: "padding"
    value {
      s: "SAME"
    }
  }
  attr {
    key: "strides"
    value {
      list {
        i: 1
        i: 1
        i: 1
        i: 1
      }
    }
  }
  attr {
    key: "use_cudnn_on_gpu"
    value {
      b: true
    }
  }
}
node {
  name: "DS-CNN/conv_ds_1/exp_conv/BiasAdd"
  op: "BiasAdd"
  input: "DS-CNN/conv_ds_1/exp_conv/Conv2D"
  input: "DS-CNN/conv_ds_1/exp_conv/biases/read"
  attr {
    key: "T"
    value {
      type: DT_FLOAT
    }
  }
  attr {
    key: "data_format"
    value {
      s: "NHWC"
    }
  }
}
node {
  name: "DS-CNN/conv_ds_1/exp_conv/batch_norm/beta/Initializer/zeros"
  op: "Const"
  attr {
    key: "_class"
    value {
      list {
        s: "loc:@DS-CNN/conv_ds_1/exp_conv/batch_norm/beta"
      }
    }
  }
  attr {
    key: "dtype"
    value {
      type: DT_FLOAT
    }
  }
  attr {
    key: "value"
    value {
      tensor {
        dtype: DT_FLOAT
        tensor_shape {
          dim {
            size: 384
          }
        }
        float_val: 0.0
      }
    }
  }
}
node {
  name: "DS-CNN/conv_ds_1/exp_conv/batch_norm/beta"
  op: "VariableV2"
  attr {
    key: "_class"
    value {
      list {
        s: "loc:@DS-CNN/conv_ds_1/exp_conv/batch_norm/beta"
      }
    }
  }
  attr {
    key: "container"
    value {
      s: ""
    }
  }
  attr {
    key: "dtype"
    value {
      type: DT_FLOAT
    }
  }
  attr {
    key: "shape"
    value {
      shape {
        dim {
          size: 384
        }
      }
    }
  }
  attr {
    key: "shared_name"
    value {
      s: ""
    }
  }
}
node {
  name: "DS-CNN/conv_ds_1/exp_conv/batch_norm/beta/Assign"
  op: "Assign"
  input: "DS-CNN/conv_ds_1/exp_conv/batch_norm/beta"
  input: "DS-CNN/conv_ds_1/exp_conv/batch_norm/beta/Initializer/zeros"
  attr {
    key: "T"
    value {
      type: DT_FLOAT
    }
  }
  attr {
    key: "_class"
    value {
      list {
        s: "loc:@DS-CNN/conv_ds_1/exp_conv/batch_norm/beta"
      }
    }
  }
  attr {
    key: "use_locking"
    value {
      b: true
    }
  }
  attr {
    key: "validate_shape"
    value {
      b: true
    }
  }
}
node {
  name: "DS-CNN/conv_ds_1/exp_conv/batch_norm/beta/read"
  op: "Identity"
  input: "DS-CNN/conv_ds_1/exp_conv/batch_norm/beta"
  attr {
    key: "T"
    value {
      type: DT_FLOAT
    }
  }
  attr {
    key: "_class"
    value {
      list {
        s: "loc:@DS-CNN/conv_ds_1/exp_conv/batch_norm/beta"
      }
    }
  }
}
node {
  name: "DS-CNN/conv_ds_1/exp_conv/batch_norm/Const"
  op: "Const"
  attr {
    key: "dtype"
    value {
      type: DT_FLOAT
    }
  }
  attr {
    key: "value"
    value {
      tensor {
        dtype: DT_FLOAT
        tensor_shape {
          dim {
            size: 384
          }
        }
        float_val: 1.0
      }
    }
  }
}
node {
  name: "DS-CNN/conv_ds_1/exp_conv/batch_norm/moving_mean/Initializer/zeros"
  op: "Const"
  attr {
    key: "_class"
    value {
      list {
        s: "loc:@DS-CNN/conv_ds_1/exp_conv/batch_norm/moving_mean"
      }
    }
  }
  attr {
    key: "dtype"
    value {
      type: DT_FLOAT
    }
  }
  attr {
    key: "value"
    value {
      tensor {
        dtype: DT_FLOAT
        tensor_shape {
          dim {
            size: 384
          }
        }
        float_val: 0.0
      }
    }
  }
}
node {
  name: "DS-CNN/conv_ds_1/exp_conv/batch_norm/moving_mean"
  op: "VariableV2"
  attr {
    key: "_class"
    value {
      list {
        s: "loc:@DS-CNN/conv_ds_1/exp_conv/batch_norm/moving_mean"
      }
    }
  }
  attr {
    key: "container"
    value {
      s: ""
    }
  }
  attr {
    key: "dtype"
    value {
      type: DT_FLOAT
    }
  }
  attr {
    key: "shape"
    value {
      shape {
        dim {
          size: 384
        }
      }
    }
  }
  attr {
    key: "shared_name"
    value {
      s: ""
    }
  }
}
node {
  name: "DS-CNN/conv_ds_1/exp_conv/batch_norm/moving_mean/Assign"
  op: "Assign"
  input: "DS-CNN/conv_ds_1/exp_conv/batch_norm/moving_mean"
  input: "DS-CNN/conv_ds_1/exp_conv/batch_norm/moving_mean/Initializer/zeros"
  attr {
    key: "T"
    value {
      type: DT_FLOAT
    }
  }
  attr {
    key: "_class"
    value {
      list {
        s: "loc:@DS-CNN/conv_ds_1/exp_conv/batch_norm/moving_mean"
      }
    }
  }
  attr {
    key: "use_locking"
    value {
      b: true
    }
  }
  attr {
    key: "validate_shape"
    value {
      b: true
    }
  }
}
node {
  name: "DS-CNN/conv_ds_1/exp_conv/batch_norm/moving_mean/read"
  op: "Identity"
  input: "DS-CNN/conv_ds_1/exp_conv/batch_norm/moving_mean"
  attr {
    key: "T"
    value {
      type: DT_FLOAT
    }
  }
  attr {
    key: "_class"
    value {
      list {
        s: "loc:@DS-CNN/conv_ds_1/exp_conv/batch_norm/moving_mean"
      }
    }
  }
}
node {
  name: "DS-CNN/conv_ds_1/exp_conv/batch_norm/moving_variance/Initializer/ones"
  op: "Const"
  attr {
    key: "_class"
    value {
      list {
        s: "loc:@DS-CNN/conv_ds_1/exp_conv/batch_norm/moving_variance"
      }
    }
  }
  attr {
    key: "dtype"
    value {
      type: DT_FLOAT
    }
  }
  attr {
    key: "value"
    value {
      tensor {
        dtype: DT_FLOAT
        tensor_shape {
          dim {
            size: 384
          }
        }
        float_val: 1.0
      }
    }
  }
}
node {
  name: "DS-CNN/conv_ds_1/exp_conv/batch_norm/moving_variance"
  op: "VariableV2"
  attr {
    key: "_class"
    value {
      list {
        s: "loc:@DS-CNN/conv_ds_1/exp_conv/batch_norm/moving_variance"
      }
    }
  }
  attr {
    key: "container"
    value {
      s: ""
    }
  }
  attr {
    key: "dtype"
    value {
      type: DT_FLOAT
    }
  }
  attr {
    key: "shape"
    value {
      shape {
        dim {
          size: 384
        }
      }
    }
  }
  attr {
    key: "shared_name"
    value {
      s: ""
    }
  }
}
node {
  name: "DS-CNN/conv_ds_1/exp_conv/batch_norm/moving_variance/Assign"
  op: "Assign"
  input: "DS-CNN/conv_ds_1/exp_conv/batch_norm/moving_variance"
  input: "DS-CNN/conv_ds_1/exp_conv/batch_norm/moving_variance/Initializer/ones"
  attr {
    key: "T"
    value {
      type: DT_FLOAT
    }
  }
  attr {
    key: "_class"
    value {
      list {
        s: "loc:@DS-CNN/conv_ds_1/exp_conv/batch_norm/moving_variance"
      }
    }
  }
  attr {
    key: "use_locking"
    value {
      b: true
    }
  }
  attr {
    key: "validate_shape"
    value {
      b: true
    }
  }
}
node {
  name: "DS-CNN/conv_ds_1/exp_conv/batch_norm/moving_variance/read"
  op: "Identity"
  input: "DS-CNN/conv_ds_1/exp_conv/batch_norm/moving_variance"
  attr {
    key: "T"
    value {
      type: DT_FLOAT
    }
  }
  attr {
    key: "_class"
    value {
      list {
        s: "loc:@DS-CNN/conv_ds_1/exp_conv/batch_norm/moving_variance"
      }
    }
  }
}
node {
  name: "DS-CNN/conv_ds_1/exp_conv/batch_norm/Const_1"
  op: "Const"
  attr {
    key: "dtype"
    value {
      type: DT_FLOAT
    }
  }
  attr {
    key: "value"
    value {
      tensor {
        dtype: DT_FLOAT
        tensor_shape {
          dim {
          }
        }
      }
    }
  }
}
node {
  name: "DS-CNN/conv_ds_1/exp_conv/batch_norm/Const_2"
  op: "Const"
  attr {
    key: "dtype"
    value {
      type: DT_FLOAT
    }
  }
  attr {
    key: "value"
    value {
      tensor {
        dtype: DT_FLOAT
        tensor_shape {
          dim {
          }
        }
      }
    }
  }
}
node {
  name: "DS-CNN/conv_ds_1/exp_conv/batch_norm/FusedBatchNorm"
  op: "FusedBatchNorm"
  input: "DS-CNN/conv_ds_1/exp_conv/BiasAdd"
  input: "DS-CNN/conv_ds_1/exp_conv/batch_norm/Const"
  input: "DS-CNN/conv_ds_1/exp_conv/batch_norm/beta/read"
  input: "DS-CNN/conv_ds_1/exp_conv/batch_norm/Const_1"
  input: "DS-CNN/conv_ds_1/exp_conv/batch_norm/Const_2"
  attr {
    key: "T"
    value {
      type: DT_FLOAT
    }
  }
  attr {
    key: "data_format"
    value {
      s: "NHWC"
    }
  }
  attr {
    key: "epsilon"
    value {
      f: 0.0010000000475
    }
  }
  attr {
    key: "is_training"
    value {
      b: true
    }
  }
}
node {
  name: "DS-CNN/conv_ds_1/exp_conv/batch_norm/AssignMovingAvg/decay"
  op: "Const"
  attr {
    key: "_class"
    value {
      list {
        s: "loc:@DS-CNN/conv_ds_1/exp_conv/batch_norm/moving_mean"
      }
    }
  }
  attr {
    key: "dtype"
    value {
      type: DT_FLOAT
    }
  }
  attr {
    key: "value"
    value {
      tensor {
        dtype: DT_FLOAT
        tensor_shape {
        }
        float_val: 0.0399999991059
      }
    }
  }
}
node {
  name: "DS-CNN/conv_ds_1/exp_conv/batch_norm/AssignMovingAvg/sub"
  op: "Sub"
  input: "DS-CNN/conv_ds_1/exp_conv/batch_norm/moving_mean/read"
  input: "DS-CNN/conv_ds_1/exp_conv/batch_norm/FusedBatchNorm:1"
  attr {
    key: "T"
    value {
      type: DT_FLOAT
    }
  }
  attr {
    key: "_class"
    value {
      list {
        s: "loc:@DS-CNN/conv_ds_1/exp_conv/batch_norm/moving_mean"
      }
    }
  }
}
node {
  name: "DS-CNN/conv_ds_1/exp_conv/batch_norm/AssignMovingAvg/mul"
  op: "Mul"
  input: "DS-CNN/conv_ds_1/exp_conv/batch_norm/AssignMovingAvg/sub"
  input: "DS-CNN/conv_ds_1/exp_conv/batch_norm/AssignMovingAvg/decay"
  attr {
    key: "T"
    value {
      type: DT_FLOAT
    }
  }
  attr {
    key: "_class"
    value {
      list {
        s: "loc:@DS-CNN/conv_ds_1/exp_conv/batch_norm/moving_mean"
      }
    }
  }
}
node {
  name: "DS-CNN/conv_ds_1/exp_conv/batch_norm/AssignMovingAvg"
  op: "AssignSub"
  input: "DS-CNN/conv_ds_1/exp_conv/batch_norm/moving_mean"
  input: "DS-CNN/conv_ds_1/exp_conv/batch_norm/AssignMovingAvg/mul"
  attr {
    key: "T"
    value {
      type: DT_FLOAT
    }
  }
  attr {
    key: "_class"
    value {
      list {
        s: "loc:@DS-CNN/conv_ds_1/exp_conv/batch_norm/moving_mean"
      }
    }
  }
  attr {
    key: "use_locking"
    value {
      b: false
    }
  }
}
node {
  name: "DS-CNN/conv_ds_1/exp_conv/batch_norm/AssignMovingAvg_1/decay"
  op: "Const"
  attr {
    key: "_class"
    value {
      list {
        s: "loc:@DS-CNN/conv_ds_1/exp_conv/batch_norm/moving_variance"
      }
    }
  }
  attr {
    key: "dtype"
    value {
      type: DT_FLOAT
    }
  }
  attr {
    key: "value"
    value {
      tensor {
        dtype: DT_FLOAT
        tensor_shape {
        }
        float_val: 0.0399999991059
      }
    }
  }
}
node {
  name: "DS-CNN/conv_ds_1/exp_conv/batch_norm/AssignMovingAvg_1/sub"
  op: "Sub"
  input: "DS-CNN/conv_ds_1/exp_conv/batch_norm/moving_variance/read"
  input: "DS-CNN/conv_ds_1/exp_conv/batch_norm/FusedBatchNorm:2"
  attr {
    key: "T"
    value {
      type: DT_FLOAT
    }
  }
  attr {
    key: "_class"
    value {
      list {
        s: "loc:@DS-CNN/conv_ds_1/exp_conv/batch_norm/moving_variance"
      }
    }
  }
}
node {
  name: "DS-CNN/conv_ds_1/exp_conv/batch_norm/AssignMovingAvg_1/mul"
  op: "Mul"
  input: "DS-CNN/conv_ds_1/exp_conv/batch_norm/AssignMovingAvg_1/sub"
  input: "DS-CNN/conv_ds_1/exp_conv/batch_norm/AssignMovingAvg_1/decay"
  attr {
    key: "T"
    value {
      type: DT_FLOAT
    }
  }
  attr {
    key: "_class"
    value {
      list {
        s: "loc:@DS-CNN/conv_ds_1/exp_conv/batch_norm/moving_variance"
      }
    }
  }
}
node {
  name: "DS-CNN/conv_ds_1/exp_conv/batch_norm/AssignMovingAvg_1"
  op: "AssignSub"
  input: "DS-CNN/conv_ds_1/exp_conv/batch_norm/moving_variance"
  input: "DS-CNN/conv_ds_1/exp_conv/batch_norm/AssignMovingAvg_1/mul"
  attr {
    key: "T"
    value {
      type: DT_FLOAT
    }
  }
  attr {
    key: "_class"
    value {
      list {
        s: "loc:@DS-CNN/conv_ds_1/exp_conv/batch_norm/moving_variance"
      }
    }
  }
  attr {
    key: "use_locking"
    value {
      b: false
    }
  }
}
node {
  name: "DS-CNN/conv_ds_1/exp_conv/batch_norm/Identity"
  op: "Identity"
  input: "DS-CNN/conv_ds_1/exp_conv/batch_norm/FusedBatchNorm"
  input: "^DS-CNN/conv_ds_1/exp_conv/batch_norm/AssignMovingAvg"
  input: "^DS-CNN/conv_ds_1/exp_conv/batch_norm/AssignMovingAvg_1"
  attr {
    key: "T"
    value {
      type: DT_FLOAT
    }
  }
}
node {
  name: "DS-CNN/conv_ds_1/exp_conv/batch_norm/Relu6"
  op: "Relu6"
  input: "DS-CNN/conv_ds_1/exp_conv/batch_norm/Identity"
  attr {
    key: "T"
    value {
      type: DT_FLOAT
    }
  }
}
node {
  name: "DS-CNN/conv_ds_1/dw_conv/depthwise_weights/Initializer/random_uniform/shape"
  op: "Const"
  attr {
    key: "_class"
    value {
      list {
        s: "loc:@DS-CNN/conv_ds_1/dw_conv/depthwise_weights"
      }
    }
  }
  attr {
    key: "dtype"
    value {
      type: DT_INT32
    }
  }
  attr {
    key: "value"
    value {
      tensor {
        dtype: DT_INT32
        tensor_shape {
          dim {
            size: 4
          }
        }
        tensor_content: "\003\000\000\000\003\000\000\000\200\001\000\000\001\000\000\000"
      }
    }
  }
}
node {
  name: "DS-CNN/conv_ds_1/dw_conv/depthwise_weights/Initializer/random_uniform/min"
  op: "Const"
  attr {
    key: "_class"
    value {
      list {
        s: "loc:@DS-CNN/conv_ds_1/dw_conv/depthwise_weights"
      }
    }
  }
  attr {
    key: "dtype"
    value {
      type: DT_FLOAT
    }
  }
  attr {
    key: "value"
    value {
      tensor {
        dtype: DT_FLOAT
        tensor_shape {
        }
        float_val: -0.0416125170887
      }
    }
  }
}
node {
  name: "DS-CNN/conv_ds_1/dw_conv/depthwise_weights/Initializer/random_uniform/max"
  op: "Const"
  attr {
    key: "_class"
    value {
      list {
        s: "loc:@DS-CNN/conv_ds_1/dw_conv/depthwise_weights"
      }
    }
  }
  attr {
    key: "dtype"
    value {
      type: DT_FLOAT
    }
  }
  attr {
    key: "value"
    value {
      tensor {
        dtype: DT_FLOAT
        tensor_shape {
        }
        float_val: 0.0416125170887
      }
    }
  }
}
node {
  name: "DS-CNN/conv_ds_1/dw_conv/depthwise_weights/Initializer/random_uniform/RandomUniform"
  op: "RandomUniform"
  input: "DS-CNN/conv_ds_1/dw_conv/depthwise_weights/Initializer/random_uniform/shape"
  attr {
    key: "T"
    value {
      type: DT_INT32
    }
  }
  attr {
    key: "_class"
    value {
      list {
        s: "loc:@DS-CNN/conv_ds_1/dw_conv/depthwise_weights"
      }
    }
  }
  attr {
    key: "dtype"
    value {
      type: DT_FLOAT
    }
  }
  attr {
    key: "seed"
    value {
      i: 0
    }
  }
  attr {
    key: "seed2"
    value {
      i: 0
    }
  }
}
node {
  name: "DS-CNN/conv_ds_1/dw_conv/depthwise_weights/Initializer/random_uniform/sub"
  op: "Sub"
  input: "DS-CNN/conv_ds_1/dw_conv/depthwise_weights/Initializer/random_uniform/max"
  input: "DS-CNN/conv_ds_1/dw_conv/depthwise_weights/Initializer/random_uniform/min"
  attr {
    key: "T"
    value {
      type: DT_FLOAT
    }
  }
  attr {
    key: "_class"
    value {
      list {
        s: "loc:@DS-CNN/conv_ds_1/dw_conv/depthwise_weights"
      }
    }
  }
}
node {
  name: "DS-CNN/conv_ds_1/dw_conv/depthwise_weights/Initializer/random_uniform/mul"
  op: "Mul"
  input: "DS-CNN/conv_ds_1/dw_conv/depthwise_weights/Initializer/random_uniform/RandomUniform"
  input: "DS-CNN/conv_ds_1/dw_conv/depthwise_weights/Initializer/random_uniform/sub"
  attr {
    key: "T"
    value {
      type: DT_FLOAT
    }
  }
  attr {
    key: "_class"
    value {
      list {
        s: "loc:@DS-CNN/conv_ds_1/dw_conv/depthwise_weights"
      }
    }
  }
}
node {
  name: "DS-CNN/conv_ds_1/dw_conv/depthwise_weights/Initializer/random_uniform"
  op: "Add"
  input: "DS-CNN/conv_ds_1/dw_conv/depthwise_weights/Initializer/random_uniform/mul"
  input: "DS-CNN/conv_ds_1/dw_conv/depthwise_weights/Initializer/random_uniform/min"
  attr {
    key: "T"
    value {
      type: DT_FLOAT
    }
  }
  attr {
    key: "_class"
    value {
      list {
        s: "loc:@DS-CNN/conv_ds_1/dw_conv/depthwise_weights"
      }
    }
  }
}
node {
  name: "DS-CNN/conv_ds_1/dw_conv/depthwise_weights"
  op: "VariableV2"
  attr {
    key: "_class"
    value {
      list {
        s: "loc:@DS-CNN/conv_ds_1/dw_conv/depthwise_weights"
      }
    }
  }
  attr {
    key: "container"
    value {
      s: ""
    }
  }
  attr {
    key: "dtype"
    value {
      type: DT_FLOAT
    }
  }
  attr {
    key: "shape"
    value {
      shape {
        dim {
          size: 3
        }
        dim {
          size: 3
        }
        dim {
          size: 384
        }
        dim {
          size: 1
        }
      }
    }
  }
  attr {
    key: "shared_name"
    value {
      s: ""
    }
  }
}
node {
  name: "DS-CNN/conv_ds_1/dw_conv/depthwise_weights/Assign"
  op: "Assign"
  input: "DS-CNN/conv_ds_1/dw_conv/depthwise_weights"
  input: "DS-CNN/conv_ds_1/dw_conv/depthwise_weights/Initializer/random_uniform"
  attr {
    key: "T"
    value {
      type: DT_FLOAT
    }
  }
  attr {
    key: "_class"
    value {
      list {
        s: "loc:@DS-CNN/conv_ds_1/dw_conv/depthwise_weights"
      }
    }
  }
  attr {
    key: "use_locking"
    value {
      b: true
    }
  }
  attr {
    key: "validate_shape"
    value {
      b: true
    }
  }
}
node {
  name: "DS-CNN/conv_ds_1/dw_conv/depthwise_weights/read"
  op: "Identity"
  input: "DS-CNN/conv_ds_1/dw_conv/depthwise_weights"
  attr {
    key: "T"
    value {
      type: DT_FLOAT
    }
  }
  attr {
    key: "_class"
    value {
      list {
        s: "loc:@DS-CNN/conv_ds_1/dw_conv/depthwise_weights"
      }
    }
  }
}
node {
  name: "DS-CNN/conv_ds_1/dw_conv/depthwise/Shape"
  op: "Const"
  attr {
    key: "dtype"
    value {
      type: DT_INT32
    }
  }
  attr {
    key: "value"
    value {
      tensor {
        dtype: DT_INT32
        tensor_shape {
          dim {
            size: 4
          }
        }
        tensor_content: "\003\000\000\000\003\000\000\000\200\001\000\000\001\000\000\000"
      }
    }
  }
}
node {
  name: "DS-CNN/conv_ds_1/dw_conv/depthwise/dilation_rate"
  op: "Const"
  attr {
    key: "dtype"
    value {
      type: DT_INT32
    }
  }
  attr {
    key: "value"
    value {
      tensor {
        dtype: DT_INT32
        tensor_shape {
          dim {
            size: 2
          }
        }
        tensor_content: "\001\000\000\000\001\000\000\000"
      }
    }
  }
}
node {
  name: "DS-CNN/conv_ds_1/dw_conv/depthwise"
  op: "DepthwiseConv2dNative"
  input: "DS-CNN/conv_ds_1/exp_conv/batch_norm/Relu6"
  input: "DS-CNN/conv_ds_1/dw_conv/depthwise_weights/read"
  attr {
    key: "T"
    value {
      type: DT_FLOAT
    }
  }
  attr {
    key: "data_format"
    value {
      s: "NHWC"
    }
  }
  attr {
    key: "padding"
    value {
      s: "SAME"
    }
  }
  attr {
    key: "strides"
    value {
      list {
        i: 1
        i: 1
        i: 1
        i: 1
      }
    }
  }
}
node {
  name: "DS-CNN/conv_ds_1/dw_conv/biases/Initializer/zeros"
  op: "Const"
  attr {
    key: "_class"
    value {
      list {
        s: "loc:@DS-CNN/conv_ds_1/dw_conv/biases"
      }
    }
  }
  attr {
    key: "dtype"
    value {
      type: DT_FLOAT
    }
  }
  attr {
    key: "value"
    value {
      tensor {
        dtype: DT_FLOAT
        tensor_shape {
          dim {
            size: 384
          }
        }
        float_val: 0.0
      }
    }
  }
}
node {
  name: "DS-CNN/conv_ds_1/dw_conv/biases"
  op: "VariableV2"
  attr {
    key: "_class"
    value {
      list {
        s: "loc:@DS-CNN/conv_ds_1/dw_conv/biases"
      }
    }
  }
  attr {
    key: "container"
    value {
      s: ""
    }
  }
  attr {
    key: "dtype"
    value {
      type: DT_FLOAT
    }
  }
  attr {
    key: "shape"
    value {
      shape {
        dim {
          size: 384
        }
      }
    }
  }
  attr {
    key: "shared_name"
    value {
      s: ""
    }
  }
}
node {
  name: "DS-CNN/conv_ds_1/dw_conv/biases/Assign"
  op: "Assign"
  input: "DS-CNN/conv_ds_1/dw_conv/biases"
  input: "DS-CNN/conv_ds_1/dw_conv/biases/Initializer/zeros"
  attr {
    key: "T"
    value {
      type: DT_FLOAT
    }
  }
  attr {
    key: "_class"
    value {
      list {
        s: "loc:@DS-CNN/conv_ds_1/dw_conv/biases"
      }
    }
  }
  attr {
    key: "use_locking"
    value {
      b: true
    }
  }
  attr {
    key: "validate_shape"
    value {
      b: true
    }
  }
}
node {
  name: "DS-CNN/conv_ds_1/dw_conv/biases/read"
  op: "Identity"
  input: "DS-CNN/conv_ds_1/dw_conv/biases"
  attr {
    key: "T"
    value {
      type: DT_FLOAT
    }
  }
  attr {
    key: "_class"
    value {
      list {
        s: "loc:@DS-CNN/conv_ds_1/dw_conv/biases"
      }
    }
  }
}
node {
  name: "DS-CNN/conv_ds_1/dw_conv/BiasAdd"
  op: "BiasAdd"
  input: "DS-CNN/conv_ds_1/dw_conv/depthwise"
  input: "DS-CNN/conv_ds_1/dw_conv/biases/read"
  attr {
    key: "T"
    value {
      type: DT_FLOAT
    }
  }
  attr {
    key: "data_format"
    value {
      s: "NHWC"
    }
  }
}
node {
  name: "DS-CNN/conv_ds_1/dw_conv/batch_norm/beta/Initializer/zeros"
  op: "Const"
  attr {
    key: "_class"
    value {
      list {
        s: "loc:@DS-CNN/conv_ds_1/dw_conv/batch_norm/beta"
      }
    }
  }
  attr {
    key: "dtype"
    value {
      type: DT_FLOAT
    }
  }
  attr {
    key: "value"
    value {
      tensor {
        dtype: DT_FLOAT
        tensor_shape {
          dim {
            size: 384
          }
        }
        float_val: 0.0
      }
    }
  }
}
node {
  name: "DS-CNN/conv_ds_1/dw_conv/batch_norm/beta"
  op: "VariableV2"
  attr {
    key: "_class"
    value {
      list {
        s: "loc:@DS-CNN/conv_ds_1/dw_conv/batch_norm/beta"
      }
    }
  }
  attr {
    key: "container"
    value {
      s: ""
    }
  }
  attr {
    key: "dtype"
    value {
      type: DT_FLOAT
    }
  }
  attr {
    key: "shape"
    value {
      shape {
        dim {
          size: 384
        }
      }
    }
  }
  attr {
    key: "shared_name"
    value {
      s: ""
    }
  }
}
node {
  name: "DS-CNN/conv_ds_1/dw_conv/batch_norm/beta/Assign"
  op: "Assign"
  input: "DS-CNN/conv_ds_1/dw_conv/batch_norm/beta"
  input: "DS-CNN/conv_ds_1/dw_conv/batch_norm/beta/Initializer/zeros"
  attr {
    key: "T"
    value {
      type: DT_FLOAT
    }
  }
  attr {
    key: "_class"
    value {
      list {
        s: "loc:@DS-CNN/conv_ds_1/dw_conv/batch_norm/beta"
      }
    }
  }
  attr {
    key: "use_locking"
    value {
      b: true
    }
  }
  attr {
    key: "validate_shape"
    value {
      b: true
    }
  }
}
node {
  name: "DS-CNN/conv_ds_1/dw_conv/batch_norm/beta/read"
  op: "Identity"
  input: "DS-CNN/conv_ds_1/dw_conv/batch_norm/beta"
  attr {
    key: "T"
    value {
      type: DT_FLOAT
    }
  }
  attr {
    key: "_class"
    value {
      list {
        s: "loc:@DS-CNN/conv_ds_1/dw_conv/batch_norm/beta"
      }
    }
  }
}
node {
  name: "DS-CNN/conv_ds_1/dw_conv/batch_norm/Const"
  op: "Const"
  attr {
    key: "dtype"
    value {
      type: DT_FLOAT
    }
  }
  attr {
    key: "value"
    value {
      tensor {
        dtype: DT_FLOAT
        tensor_shape {
          dim {
            size: 384
          }
        }
        float_val: 1.0
      }
    }
  }
}
node {
  name: "DS-CNN/conv_ds_1/dw_conv/batch_norm/moving_mean/Initializer/zeros"
  op: "Const"
  attr {
    key: "_class"
    value {
      list {
        s: "loc:@DS-CNN/conv_ds_1/dw_conv/batch_norm/moving_mean"
      }
    }
  }
  attr {
    key: "dtype"
    value {
      type: DT_FLOAT
    }
  }
  attr {
    key: "value"
    value {
      tensor {
        dtype: DT_FLOAT
        tensor_shape {
          dim {
            size: 384
          }
        }
        float_val: 0.0
      }
    }
  }
}
node {
  name: "DS-CNN/conv_ds_1/dw_conv/batch_norm/moving_mean"
  op: "VariableV2"
  attr {
    key: "_class"
    value {
      list {
        s: "loc:@DS-CNN/conv_ds_1/dw_conv/batch_norm/moving_mean"
      }
    }
  }
  attr {
    key: "container"
    value {
      s: ""
    }
  }
  attr {
    key: "dtype"
    value {
      type: DT_FLOAT
    }
  }
  attr {
    key: "shape"
    value {
      shape {
        dim {
          size: 384
        }
      }
    }
  }
  attr {
    key: "shared_name"
    value {
      s: ""
    }
  }
}
node {
  name: "DS-CNN/conv_ds_1/dw_conv/batch_norm/moving_mean/Assign"
  op: "Assign"
  input: "DS-CNN/conv_ds_1/dw_conv/batch_norm/moving_mean"
  input: "DS-CNN/conv_ds_1/dw_conv/batch_norm/moving_mean/Initializer/zeros"
  attr {
    key: "T"
    value {
      type: DT_FLOAT
    }
  }
  attr {
    key: "_class"
    value {
      list {
        s: "loc:@DS-CNN/conv_ds_1/dw_conv/batch_norm/moving_mean"
      }
    }
  }
  attr {
    key: "use_locking"
    value {
      b: true
    }
  }
  attr {
    key: "validate_shape"
    value {
      b: true
    }
  }
}
node {
  name: "DS-CNN/conv_ds_1/dw_conv/batch_norm/moving_mean/read"
  op: "Identity"
  input: "DS-CNN/conv_ds_1/dw_conv/batch_norm/moving_mean"
  attr {
    key: "T"
    value {
      type: DT_FLOAT
    }
  }
  attr {
    key: "_class"
    value {
      list {
        s: "loc:@DS-CNN/conv_ds_1/dw_conv/batch_norm/moving_mean"
      }
    }
  }
}
node {
  name: "DS-CNN/conv_ds_1/dw_conv/batch_norm/moving_variance/Initializer/ones"
  op: "Const"
  attr {
    key: "_class"
    value {
      list {
        s: "loc:@DS-CNN/conv_ds_1/dw_conv/batch_norm/moving_variance"
      }
    }
  }
  attr {
    key: "dtype"
    value {
      type: DT_FLOAT
    }
  }
  attr {
    key: "value"
    value {
      tensor {
        dtype: DT_FLOAT
        tensor_shape {
          dim {
            size: 384
          }
        }
        float_val: 1.0
      }
    }
  }
}
node {
  name: "DS-CNN/conv_ds_1/dw_conv/batch_norm/moving_variance"
  op: "VariableV2"
  attr {
    key: "_class"
    value {
      list {
        s: "loc:@DS-CNN/conv_ds_1/dw_conv/batch_norm/moving_variance"
      }
    }
  }
  attr {
    key: "container"
    value {
      s: ""
    }
  }
  attr {
    key: "dtype"
    value {
      type: DT_FLOAT
    }
  }
  attr {
    key: "shape"
    value {
      shape {
        dim {
          size: 384
        }
      }
    }
  }
  attr {
    key: "shared_name"
    value {
      s: ""
    }
  }
}
node {
  name: "DS-CNN/conv_ds_1/dw_conv/batch_norm/moving_variance/Assign"
  op: "Assign"
  input: "DS-CNN/conv_ds_1/dw_conv/batch_norm/moving_variance"
  input: "DS-CNN/conv_ds_1/dw_conv/batch_norm/moving_variance/Initializer/ones"
  attr {
    key: "T"
    value {
      type: DT_FLOAT
    }
  }
  attr {
    key: "_class"
    value {
      list {
        s: "loc:@DS-CNN/conv_ds_1/dw_conv/batch_norm/moving_variance"
      }
    }
  }
  attr {
    key: "use_locking"
    value {
      b: true
    }
  }
  attr {
    key: "validate_shape"
    value {
      b: true
    }
  }
}
node {
  name: "DS-CNN/conv_ds_1/dw_conv/batch_norm/moving_variance/read"
  op: "Identity"
  input: "DS-CNN/conv_ds_1/dw_conv/batch_norm/moving_variance"
  attr {
    key: "T"
    value {
      type: DT_FLOAT
    }
  }
  attr {
    key: "_class"
    value {
      list {
        s: "loc:@DS-CNN/conv_ds_1/dw_conv/batch_norm/moving_variance"
      }
    }
  }
}
node {
  name: "DS-CNN/conv_ds_1/dw_conv/batch_norm/Const_1"
  op: "Const"
  attr {
    key: "dtype"
    value {
      type: DT_FLOAT
    }
  }
  attr {
    key: "value"
    value {
      tensor {
        dtype: DT_FLOAT
        tensor_shape {
          dim {
          }
        }
      }
    }
  }
}
node {
  name: "DS-CNN/conv_ds_1/dw_conv/batch_norm/Const_2"
  op: "Const"
  attr {
    key: "dtype"
    value {
      type: DT_FLOAT
    }
  }
  attr {
    key: "value"
    value {
      tensor {
        dtype: DT_FLOAT
        tensor_shape {
          dim {
          }
        }
      }
    }
  }
}
node {
  name: "DS-CNN/conv_ds_1/dw_conv/batch_norm/FusedBatchNorm"
  op: "FusedBatchNorm"
  input: "DS-CNN/conv_ds_1/dw_conv/BiasAdd"
  input: "DS-CNN/conv_ds_1/dw_conv/batch_norm/Const"
  input: "DS-CNN/conv_ds_1/dw_conv/batch_norm/beta/read"
  input: "DS-CNN/conv_ds_1/dw_conv/batch_norm/Const_1"
  input: "DS-CNN/conv_ds_1/dw_conv/batch_norm/Const_2"
  attr {
    key: "T"
    value {
      type: DT_FLOAT
    }
  }
  attr {
    key: "data_format"
    value {
      s: "NHWC"
    }
  }
  attr {
    key: "epsilon"
    value {
      f: 0.0010000000475
    }
  }
  attr {
    key: "is_training"
    value {
      b: true
    }
  }
}
node {
  name: "DS-CNN/conv_ds_1/dw_conv/batch_norm/AssignMovingAvg/decay"
  op: "Const"
  attr {
    key: "_class"
    value {
      list {
        s: "loc:@DS-CNN/conv_ds_1/dw_conv/batch_norm/moving_mean"
      }
    }
  }
  attr {
    key: "dtype"
    value {
      type: DT_FLOAT
    }
  }
  attr {
    key: "value"
    value {
      tensor {
        dtype: DT_FLOAT
        tensor_shape {
        }
        float_val: 0.0399999991059
      }
    }
  }
}
node {
  name: "DS-CNN/conv_ds_1/dw_conv/batch_norm/AssignMovingAvg/sub"
  op: "Sub"
  input: "DS-CNN/conv_ds_1/dw_conv/batch_norm/moving_mean/read"
  input: "DS-CNN/conv_ds_1/dw_conv/batch_norm/FusedBatchNorm:1"
  attr {
    key: "T"
    value {
      type: DT_FLOAT
    }
  }
  attr {
    key: "_class"
    value {
      list {
        s: "loc:@DS-CNN/conv_ds_1/dw_conv/batch_norm/moving_mean"
      }
    }
  }
}
node {
  name: "DS-CNN/conv_ds_1/dw_conv/batch_norm/AssignMovingAvg/mul"
  op: "Mul"
  input: "DS-CNN/conv_ds_1/dw_conv/batch_norm/AssignMovingAvg/sub"
  input: "DS-CNN/conv_ds_1/dw_conv/batch_norm/AssignMovingAvg/decay"
  attr {
    key: "T"
    value {
      type: DT_FLOAT
    }
  }
  attr {
    key: "_class"
    value {
      list {
        s: "loc:@DS-CNN/conv_ds_1/dw_conv/batch_norm/moving_mean"
      }
    }
  }
}
node {
  name: "DS-CNN/conv_ds_1/dw_conv/batch_norm/AssignMovingAvg"
  op: "AssignSub"
  input: "DS-CNN/conv_ds_1/dw_conv/batch_norm/moving_mean"
  input: "DS-CNN/conv_ds_1/dw_conv/batch_norm/AssignMovingAvg/mul"
  attr {
    key: "T"
    value {
      type: DT_FLOAT
    }
  }
  attr {
    key: "_class"
    value {
      list {
        s: "loc:@DS-CNN/conv_ds_1/dw_conv/batch_norm/moving_mean"
      }
    }
  }
  attr {
    key: "use_locking"
    value {
      b: false
    }
  }
}
node {
  name: "DS-CNN/conv_ds_1/dw_conv/batch_norm/AssignMovingAvg_1/decay"
  op: "Const"
  attr {
    key: "_class"
    value {
      list {
        s: "loc:@DS-CNN/conv_ds_1/dw_conv/batch_norm/moving_variance"
      }
    }
  }
  attr {
    key: "dtype"
    value {
      type: DT_FLOAT
    }
  }
  attr {
    key: "value"
    value {
      tensor {
        dtype: DT_FLOAT
        tensor_shape {
        }
        float_val: 0.0399999991059
      }
    }
  }
}
node {
  name: "DS-CNN/conv_ds_1/dw_conv/batch_norm/AssignMovingAvg_1/sub"
  op: "Sub"
  input: "DS-CNN/conv_ds_1/dw_conv/batch_norm/moving_variance/read"
  input: "DS-CNN/conv_ds_1/dw_conv/batch_norm/FusedBatchNorm:2"
  attr {
    key: "T"
    value {
      type: DT_FLOAT
    }
  }
  attr {
    key: "_class"
    value {
      list {
        s: "loc:@DS-CNN/conv_ds_1/dw_conv/batch_norm/moving_variance"
      }
    }
  }
}
node {
  name: "DS-CNN/conv_ds_1/dw_conv/batch_norm/AssignMovingAvg_1/mul"
  op: "Mul"
  input: "DS-CNN/conv_ds_1/dw_conv/batch_norm/AssignMovingAvg_1/sub"
  input: "DS-CNN/conv_ds_1/dw_conv/batch_norm/AssignMovingAvg_1/decay"
  attr {
    key: "T"
    value {
      type: DT_FLOAT
    }
  }
  attr {
    key: "_class"
    value {
      list {
        s: "loc:@DS-CNN/conv_ds_1/dw_conv/batch_norm/moving_variance"
      }
    }
  }
}
node {
  name: "DS-CNN/conv_ds_1/dw_conv/batch_norm/AssignMovingAvg_1"
  op: "AssignSub"
  input: "DS-CNN/conv_ds_1/dw_conv/batch_norm/moving_variance"
  input: "DS-CNN/conv_ds_1/dw_conv/batch_norm/AssignMovingAvg_1/mul"
  attr {
    key: "T"
    value {
      type: DT_FLOAT
    }
  }
  attr {
    key: "_class"
    value {
      list {
        s: "loc:@DS-CNN/conv_ds_1/dw_conv/batch_norm/moving_variance"
      }
    }
  }
  attr {
    key: "use_locking"
    value {
      b: false
    }
  }
}
node {
  name: "DS-CNN/conv_ds_1/dw_conv/batch_norm/Identity"
  op: "Identity"
  input: "DS-CNN/conv_ds_1/dw_conv/batch_norm/FusedBatchNorm"
  input: "^DS-CNN/conv_ds_1/dw_conv/batch_norm/AssignMovingAvg"
  input: "^DS-CNN/conv_ds_1/dw_conv/batch_norm/AssignMovingAvg_1"
  attr {
    key: "T"
    value {
      type: DT_FLOAT
    }
  }
}
node {
  name: "DS-CNN/conv_ds_1/dw_conv/batch_norm/Relu6"
  op: "Relu6"
  input: "DS-CNN/conv_ds_1/dw_conv/batch_norm/Identity"
  attr {
    key: "T"
    value {
      type: DT_FLOAT
    }
  }
}
node {
  name: "DS-CNN/conv_ds_1/pj_conv/weights/Initializer/random_uniform/shape"
  op: "Const"
  attr {
    key: "_class"
    value {
      list {
        s: "loc:@DS-CNN/conv_ds_1/pj_conv/weights"
      }
    }
  }
  attr {
    key: "dtype"
    value {
      type: DT_INT32
    }
  }
  attr {
    key: "value"
    value {
      tensor {
        dtype: DT_INT32
        tensor_shape {
          dim {
            size: 4
          }
        }
        tensor_content: "\001\000\000\000\001\000\000\000\200\001\000\000@\000\000\000"
      }
    }
  }
}
node {
  name: "DS-CNN/conv_ds_1/pj_conv/weights/Initializer/random_uniform/min"
  op: "Const"
  attr {
    key: "_class"
    value {
      list {
        s: "loc:@DS-CNN/conv_ds_1/pj_conv/weights"
      }
    }
  }
  attr {
    key: "dtype"
    value {
      type: DT_FLOAT
    }
  }
  attr {
    key: "value"
    value {
      tensor {
        dtype: DT_FLOAT
        tensor_shape {
        }
        float_val: -0.115727514029
      }
    }
  }
}
node {
  name: "DS-CNN/conv_ds_1/pj_conv/weights/Initializer/random_uniform/max"
  op: "Const"
  attr {
    key: "_class"
    value {
      list {
        s: "loc:@DS-CNN/conv_ds_1/pj_conv/weights"
      }
    }
  }
  attr {
    key: "dtype"
    value {
      type: DT_FLOAT
    }
  }
  attr {
    key: "value"
    value {
      tensor {
        dtype: DT_FLOAT
        tensor_shape {
        }
        float_val: 0.115727514029
      }
    }
  }
}
node {
  name: "DS-CNN/conv_ds_1/pj_conv/weights/Initializer/random_uniform/RandomUniform"
  op: "RandomUniform"
  input: "DS-CNN/conv_ds_1/pj_conv/weights/Initializer/random_uniform/shape"
  attr {
    key: "T"
    value {
      type: DT_INT32
    }
  }
  attr {
    key: "_class"
    value {
      list {
        s: "loc:@DS-CNN/conv_ds_1/pj_conv/weights"
      }
    }
  }
  attr {
    key: "dtype"
    value {
      type: DT_FLOAT
    }
  }
  attr {
    key: "seed"
    value {
      i: 0
    }
  }
  attr {
    key: "seed2"
    value {
      i: 0
    }
  }
}
node {
  name: "DS-CNN/conv_ds_1/pj_conv/weights/Initializer/random_uniform/sub"
  op: "Sub"
  input: "DS-CNN/conv_ds_1/pj_conv/weights/Initializer/random_uniform/max"
  input: "DS-CNN/conv_ds_1/pj_conv/weights/Initializer/random_uniform/min"
  attr {
    key: "T"
    value {
      type: DT_FLOAT
    }
  }
  attr {
    key: "_class"
    value {
      list {
        s: "loc:@DS-CNN/conv_ds_1/pj_conv/weights"
      }
    }
  }
}
node {
  name: "DS-CNN/conv_ds_1/pj_conv/weights/Initializer/random_uniform/mul"
  op: "Mul"
  input: "DS-CNN/conv_ds_1/pj_conv/weights/Initializer/random_uniform/RandomUniform"
  input: "DS-CNN/conv_ds_1/pj_conv/weights/Initializer/random_uniform/sub"
  attr {
    key: "T"
    value {
      type: DT_FLOAT
    }
  }
  attr {
    key: "_class"
    value {
      list {
        s: "loc:@DS-CNN/conv_ds_1/pj_conv/weights"
      }
    }
  }
}
node {
  name: "DS-CNN/conv_ds_1/pj_conv/weights/Initializer/random_uniform"
  op: "Add"
  input: "DS-CNN/conv_ds_1/pj_conv/weights/Initializer/random_uniform/mul"
  input: "DS-CNN/conv_ds_1/pj_conv/weights/Initializer/random_uniform/min"
  attr {
    key: "T"
    value {
      type: DT_FLOAT
    }
  }
  attr {
    key: "_class"
    value {
      list {
        s: "loc:@DS-CNN/conv_ds_1/pj_conv/weights"
      }
    }
  }
}
node {
  name: "DS-CNN/conv_ds_1/pj_conv/weights"
  op: "VariableV2"
  attr {
    key: "_class"
    value {
      list {
        s: "loc:@DS-CNN/conv_ds_1/pj_conv/weights"
      }
    }
  }
  attr {
    key: "container"
    value {
      s: ""
    }
  }
  attr {
    key: "dtype"
    value {
      type: DT_FLOAT
    }
  }
  attr {
    key: "shape"
    value {
      shape {
        dim {
          size: 1
        }
        dim {
          size: 1
        }
        dim {
          size: 384
        }
        dim {
          size: 64
        }
      }
    }
  }
  attr {
    key: "shared_name"
    value {
      s: ""
    }
  }
}
node {
  name: "DS-CNN/conv_ds_1/pj_conv/weights/Assign"
  op: "Assign"
  input: "DS-CNN/conv_ds_1/pj_conv/weights"
  input: "DS-CNN/conv_ds_1/pj_conv/weights/Initializer/random_uniform"
  attr {
    key: "T"
    value {
      type: DT_FLOAT
    }
  }
  attr {
    key: "_class"
    value {
      list {
        s: "loc:@DS-CNN/conv_ds_1/pj_conv/weights"
      }
    }
  }
  attr {
    key: "use_locking"
    value {
      b: true
    }
  }
  attr {
    key: "validate_shape"
    value {
      b: true
    }
  }
}
node {
  name: "DS-CNN/conv_ds_1/pj_conv/weights/read"
  op: "Identity"
  input: "DS-CNN/conv_ds_1/pj_conv/weights"
  attr {
    key: "T"
    value {
      type: DT_FLOAT
    }
  }
  attr {
    key: "_class"
    value {
      list {
        s: "loc:@DS-CNN/conv_ds_1/pj_conv/weights"
      }
    }
  }
}
node {
  name: "DS-CNN/conv_ds_1/pj_conv/biases/Initializer/zeros"
  op: "Const"
  attr {
    key: "_class"
    value {
      list {
        s: "loc:@DS-CNN/conv_ds_1/pj_conv/biases"
      }
    }
  }
  attr {
    key: "dtype"
    value {
      type: DT_FLOAT
    }
  }
  attr {
    key: "value"
    value {
      tensor {
        dtype: DT_FLOAT
        tensor_shape {
          dim {
            size: 64
          }
        }
        float_val: 0.0
      }
    }
  }
}
node {
  name: "DS-CNN/conv_ds_1/pj_conv/biases"
  op: "VariableV2"
  attr {
    key: "_class"
    value {
      list {
        s: "loc:@DS-CNN/conv_ds_1/pj_conv/biases"
      }
    }
  }
  attr {
    key: "container"
    value {
      s: ""
    }
  }
  attr {
    key: "dtype"
    value {
      type: DT_FLOAT
    }
  }
  attr {
    key: "shape"
    value {
      shape {
        dim {
          size: 64
        }
      }
    }
  }
  attr {
    key: "shared_name"
    value {
      s: ""
    }
  }
}
node {
  name: "DS-CNN/conv_ds_1/pj_conv/biases/Assign"
  op: "Assign"
  input: "DS-CNN/conv_ds_1/pj_conv/biases"
  input: "DS-CNN/conv_ds_1/pj_conv/biases/Initializer/zeros"
  attr {
    key: "T"
    value {
      type: DT_FLOAT
    }
  }
  attr {
    key: "_class"
    value {
      list {
        s: "loc:@DS-CNN/conv_ds_1/pj_conv/biases"
      }
    }
  }
  attr {
    key: "use_locking"
    value {
      b: true
    }
  }
  attr {
    key: "validate_shape"
    value {
      b: true
    }
  }
}
node {
  name: "DS-CNN/conv_ds_1/pj_conv/biases/read"
  op: "Identity"
  input: "DS-CNN/conv_ds_1/pj_conv/biases"
  attr {
    key: "T"
    value {
      type: DT_FLOAT
    }
  }
  attr {
    key: "_class"
    value {
      list {
        s: "loc:@DS-CNN/conv_ds_1/pj_conv/biases"
      }
    }
  }
}
node {
  name: "DS-CNN/conv_ds_1/pj_conv/dilation_rate"
  op: "Const"
  attr {
    key: "dtype"
    value {
      type: DT_INT32
    }
  }
  attr {
    key: "value"
    value {
      tensor {
        dtype: DT_INT32
        tensor_shape {
          dim {
            size: 2
          }
        }
        tensor_content: "\001\000\000\000\001\000\000\000"
      }
    }
  }
}
node {
  name: "DS-CNN/conv_ds_1/pj_conv/Conv2D"
  op: "Conv2D"
  input: "DS-CNN/conv_ds_1/dw_conv/batch_norm/Relu6"
  input: "DS-CNN/conv_ds_1/pj_conv/weights/read"
  attr {
    key: "T"
    value {
      type: DT_FLOAT
    }
  }
  attr {
    key: "data_format"
    value {
      s: "NHWC"
    }
  }
  attr {
    key: "padding"
    value {
      s: "SAME"
    }
  }
  attr {
    key: "strides"
    value {
      list {
        i: 1
        i: 1
        i: 1
        i: 1
      }
    }
  }
  attr {
    key: "use_cudnn_on_gpu"
    value {
      b: true
    }
  }
}
node {
  name: "DS-CNN/conv_ds_1/pj_conv/BiasAdd"
  op: "BiasAdd"
  input: "DS-CNN/conv_ds_1/pj_conv/Conv2D"
  input: "DS-CNN/conv_ds_1/pj_conv/biases/read"
  attr {
    key: "T"
    value {
      type: DT_FLOAT
    }
  }
  attr {
    key: "data_format"
    value {
      s: "NHWC"
    }
  }
}
node {
  name: "DS-CNN/conv_ds_1/pj_conv/batch_norm/beta/Initializer/zeros"
  op: "Const"
  attr {
    key: "_class"
    value {
      list {
        s: "loc:@DS-CNN/conv_ds_1/pj_conv/batch_norm/beta"
      }
    }
  }
  attr {
    key: "dtype"
    value {
      type: DT_FLOAT
    }
  }
  attr {
    key: "value"
    value {
      tensor {
        dtype: DT_FLOAT
        tensor_shape {
          dim {
            size: 64
          }
        }
        float_val: 0.0
      }
    }
  }
}
node {
  name: "DS-CNN/conv_ds_1/pj_conv/batch_norm/beta"
  op: "VariableV2"
  attr {
    key: "_class"
    value {
      list {
        s: "loc:@DS-CNN/conv_ds_1/pj_conv/batch_norm/beta"
      }
    }
  }
  attr {
    key: "container"
    value {
      s: ""
    }
  }
  attr {
    key: "dtype"
    value {
      type: DT_FLOAT
    }
  }
  attr {
    key: "shape"
    value {
      shape {
        dim {
          size: 64
        }
      }
    }
  }
  attr {
    key: "shared_name"
    value {
      s: ""
    }
  }
}
node {
  name: "DS-CNN/conv_ds_1/pj_conv/batch_norm/beta/Assign"
  op: "Assign"
  input: "DS-CNN/conv_ds_1/pj_conv/batch_norm/beta"
  input: "DS-CNN/conv_ds_1/pj_conv/batch_norm/beta/Initializer/zeros"
  attr {
    key: "T"
    value {
      type: DT_FLOAT
    }
  }
  attr {
    key: "_class"
    value {
      list {
        s: "loc:@DS-CNN/conv_ds_1/pj_conv/batch_norm/beta"
      }
    }
  }
  attr {
    key: "use_locking"
    value {
      b: true
    }
  }
  attr {
    key: "validate_shape"
    value {
      b: true
    }
  }
}
node {
  name: "DS-CNN/conv_ds_1/pj_conv/batch_norm/beta/read"
  op: "Identity"
  input: "DS-CNN/conv_ds_1/pj_conv/batch_norm/beta"
  attr {
    key: "T"
    value {
      type: DT_FLOAT
    }
  }
  attr {
    key: "_class"
    value {
      list {
        s: "loc:@DS-CNN/conv_ds_1/pj_conv/batch_norm/beta"
      }
    }
  }
}
node {
  name: "DS-CNN/conv_ds_1/pj_conv/batch_norm/Const"
  op: "Const"
  attr {
    key: "dtype"
    value {
      type: DT_FLOAT
    }
  }
  attr {
    key: "value"
    value {
      tensor {
        dtype: DT_FLOAT
        tensor_shape {
          dim {
            size: 64
          }
        }
        float_val: 1.0
      }
    }
  }
}
node {
  name: "DS-CNN/conv_ds_1/pj_conv/batch_norm/moving_mean/Initializer/zeros"
  op: "Const"
  attr {
    key: "_class"
    value {
      list {
        s: "loc:@DS-CNN/conv_ds_1/pj_conv/batch_norm/moving_mean"
      }
    }
  }
  attr {
    key: "dtype"
    value {
      type: DT_FLOAT
    }
  }
  attr {
    key: "value"
    value {
      tensor {
        dtype: DT_FLOAT
        tensor_shape {
          dim {
            size: 64
          }
        }
        float_val: 0.0
      }
    }
  }
}
node {
  name: "DS-CNN/conv_ds_1/pj_conv/batch_norm/moving_mean"
  op: "VariableV2"
  attr {
    key: "_class"
    value {
      list {
        s: "loc:@DS-CNN/conv_ds_1/pj_conv/batch_norm/moving_mean"
      }
    }
  }
  attr {
    key: "container"
    value {
      s: ""
    }
  }
  attr {
    key: "dtype"
    value {
      type: DT_FLOAT
    }
  }
  attr {
    key: "shape"
    value {
      shape {
        dim {
          size: 64
        }
      }
    }
  }
  attr {
    key: "shared_name"
    value {
      s: ""
    }
  }
}
node {
  name: "DS-CNN/conv_ds_1/pj_conv/batch_norm/moving_mean/Assign"
  op: "Assign"
  input: "DS-CNN/conv_ds_1/pj_conv/batch_norm/moving_mean"
  input: "DS-CNN/conv_ds_1/pj_conv/batch_norm/moving_mean/Initializer/zeros"
  attr {
    key: "T"
    value {
      type: DT_FLOAT
    }
  }
  attr {
    key: "_class"
    value {
      list {
        s: "loc:@DS-CNN/conv_ds_1/pj_conv/batch_norm/moving_mean"
      }
    }
  }
  attr {
    key: "use_locking"
    value {
      b: true
    }
  }
  attr {
    key: "validate_shape"
    value {
      b: true
    }
  }
}
node {
  name: "DS-CNN/conv_ds_1/pj_conv/batch_norm/moving_mean/read"
  op: "Identity"
  input: "DS-CNN/conv_ds_1/pj_conv/batch_norm/moving_mean"
  attr {
    key: "T"
    value {
      type: DT_FLOAT
    }
  }
  attr {
    key: "_class"
    value {
      list {
        s: "loc:@DS-CNN/conv_ds_1/pj_conv/batch_norm/moving_mean"
      }
    }
  }
}
node {
  name: "DS-CNN/conv_ds_1/pj_conv/batch_norm/moving_variance/Initializer/ones"
  op: "Const"
  attr {
    key: "_class"
    value {
      list {
        s: "loc:@DS-CNN/conv_ds_1/pj_conv/batch_norm/moving_variance"
      }
    }
  }
  attr {
    key: "dtype"
    value {
      type: DT_FLOAT
    }
  }
  attr {
    key: "value"
    value {
      tensor {
        dtype: DT_FLOAT
        tensor_shape {
          dim {
            size: 64
          }
        }
        float_val: 1.0
      }
    }
  }
}
node {
  name: "DS-CNN/conv_ds_1/pj_conv/batch_norm/moving_variance"
  op: "VariableV2"
  attr {
    key: "_class"
    value {
      list {
        s: "loc:@DS-CNN/conv_ds_1/pj_conv/batch_norm/moving_variance"
      }
    }
  }
  attr {
    key: "container"
    value {
      s: ""
    }
  }
  attr {
    key: "dtype"
    value {
      type: DT_FLOAT
    }
  }
  attr {
    key: "shape"
    value {
      shape {
        dim {
          size: 64
        }
      }
    }
  }
  attr {
    key: "shared_name"
    value {
      s: ""
    }
  }
}
node {
  name: "DS-CNN/conv_ds_1/pj_conv/batch_norm/moving_variance/Assign"
  op: "Assign"
  input: "DS-CNN/conv_ds_1/pj_conv/batch_norm/moving_variance"
  input: "DS-CNN/conv_ds_1/pj_conv/batch_norm/moving_variance/Initializer/ones"
  attr {
    key: "T"
    value {
      type: DT_FLOAT
    }
  }
  attr {
    key: "_class"
    value {
      list {
        s: "loc:@DS-CNN/conv_ds_1/pj_conv/batch_norm/moving_variance"
      }
    }
  }
  attr {
    key: "use_locking"
    value {
      b: true
    }
  }
  attr {
    key: "validate_shape"
    value {
      b: true
    }
  }
}
node {
  name: "DS-CNN/conv_ds_1/pj_conv/batch_norm/moving_variance/read"
  op: "Identity"
  input: "DS-CNN/conv_ds_1/pj_conv/batch_norm/moving_variance"
  attr {
    key: "T"
    value {
      type: DT_FLOAT
    }
  }
  attr {
    key: "_class"
    value {
      list {
        s: "loc:@DS-CNN/conv_ds_1/pj_conv/batch_norm/moving_variance"
      }
    }
  }
}
node {
  name: "DS-CNN/conv_ds_1/pj_conv/batch_norm/Const_1"
  op: "Const"
  attr {
    key: "dtype"
    value {
      type: DT_FLOAT
    }
  }
  attr {
    key: "value"
    value {
      tensor {
        dtype: DT_FLOAT
        tensor_shape {
          dim {
          }
        }
      }
    }
  }
}
node {
  name: "DS-CNN/conv_ds_1/pj_conv/batch_norm/Const_2"
  op: "Const"
  attr {
    key: "dtype"
    value {
      type: DT_FLOAT
    }
  }
  attr {
    key: "value"
    value {
      tensor {
        dtype: DT_FLOAT
        tensor_shape {
          dim {
          }
        }
      }
    }
  }
}
node {
  name: "DS-CNN/conv_ds_1/pj_conv/batch_norm/FusedBatchNorm"
  op: "FusedBatchNorm"
  input: "DS-CNN/conv_ds_1/pj_conv/BiasAdd"
  input: "DS-CNN/conv_ds_1/pj_conv/batch_norm/Const"
  input: "DS-CNN/conv_ds_1/pj_conv/batch_norm/beta/read"
  input: "DS-CNN/conv_ds_1/pj_conv/batch_norm/Const_1"
  input: "DS-CNN/conv_ds_1/pj_conv/batch_norm/Const_2"
  attr {
    key: "T"
    value {
      type: DT_FLOAT
    }
  }
  attr {
    key: "data_format"
    value {
      s: "NHWC"
    }
  }
  attr {
    key: "epsilon"
    value {
      f: 0.0010000000475
    }
  }
  attr {
    key: "is_training"
    value {
      b: true
    }
  }
}
node {
  name: "DS-CNN/conv_ds_1/pj_conv/batch_norm/AssignMovingAvg/decay"
  op: "Const"
  attr {
    key: "_class"
    value {
      list {
        s: "loc:@DS-CNN/conv_ds_1/pj_conv/batch_norm/moving_mean"
      }
    }
  }
  attr {
    key: "dtype"
    value {
      type: DT_FLOAT
    }
  }
  attr {
    key: "value"
    value {
      tensor {
        dtype: DT_FLOAT
        tensor_shape {
        }
        float_val: 0.0399999991059
      }
    }
  }
}
node {
  name: "DS-CNN/conv_ds_1/pj_conv/batch_norm/AssignMovingAvg/sub"
  op: "Sub"
  input: "DS-CNN/conv_ds_1/pj_conv/batch_norm/moving_mean/read"
  input: "DS-CNN/conv_ds_1/pj_conv/batch_norm/FusedBatchNorm:1"
  attr {
    key: "T"
    value {
      type: DT_FLOAT
    }
  }
  attr {
    key: "_class"
    value {
      list {
        s: "loc:@DS-CNN/conv_ds_1/pj_conv/batch_norm/moving_mean"
      }
    }
  }
}
node {
  name: "DS-CNN/conv_ds_1/pj_conv/batch_norm/AssignMovingAvg/mul"
  op: "Mul"
  input: "DS-CNN/conv_ds_1/pj_conv/batch_norm/AssignMovingAvg/sub"
  input: "DS-CNN/conv_ds_1/pj_conv/batch_norm/AssignMovingAvg/decay"
  attr {
    key: "T"
    value {
      type: DT_FLOAT
    }
  }
  attr {
    key: "_class"
    value {
      list {
        s: "loc:@DS-CNN/conv_ds_1/pj_conv/batch_norm/moving_mean"
      }
    }
  }
}
node {
  name: "DS-CNN/conv_ds_1/pj_conv/batch_norm/AssignMovingAvg"
  op: "AssignSub"
  input: "DS-CNN/conv_ds_1/pj_conv/batch_norm/moving_mean"
  input: "DS-CNN/conv_ds_1/pj_conv/batch_norm/AssignMovingAvg/mul"
  attr {
    key: "T"
    value {
      type: DT_FLOAT
    }
  }
  attr {
    key: "_class"
    value {
      list {
        s: "loc:@DS-CNN/conv_ds_1/pj_conv/batch_norm/moving_mean"
      }
    }
  }
  attr {
    key: "use_locking"
    value {
      b: false
    }
  }
}
node {
  name: "DS-CNN/conv_ds_1/pj_conv/batch_norm/AssignMovingAvg_1/decay"
  op: "Const"
  attr {
    key: "_class"
    value {
      list {
        s: "loc:@DS-CNN/conv_ds_1/pj_conv/batch_norm/moving_variance"
      }
    }
  }
  attr {
    key: "dtype"
    value {
      type: DT_FLOAT
    }
  }
  attr {
    key: "value"
    value {
      tensor {
        dtype: DT_FLOAT
        tensor_shape {
        }
        float_val: 0.0399999991059
      }
    }
  }
}
node {
  name: "DS-CNN/conv_ds_1/pj_conv/batch_norm/AssignMovingAvg_1/sub"
  op: "Sub"
  input: "DS-CNN/conv_ds_1/pj_conv/batch_norm/moving_variance/read"
  input: "DS-CNN/conv_ds_1/pj_conv/batch_norm/FusedBatchNorm:2"
  attr {
    key: "T"
    value {
      type: DT_FLOAT
    }
  }
  attr {
    key: "_class"
    value {
      list {
        s: "loc:@DS-CNN/conv_ds_1/pj_conv/batch_norm/moving_variance"
      }
    }
  }
}
node {
  name: "DS-CNN/conv_ds_1/pj_conv/batch_norm/AssignMovingAvg_1/mul"
  op: "Mul"
  input: "DS-CNN/conv_ds_1/pj_conv/batch_norm/AssignMovingAvg_1/sub"
  input: "DS-CNN/conv_ds_1/pj_conv/batch_norm/AssignMovingAvg_1/decay"
  attr {
    key: "T"
    value {
      type: DT_FLOAT
    }
  }
  attr {
    key: "_class"
    value {
      list {
        s: "loc:@DS-CNN/conv_ds_1/pj_conv/batch_norm/moving_variance"
      }
    }
  }
}
node {
  name: "DS-CNN/conv_ds_1/pj_conv/batch_norm/AssignMovingAvg_1"
  op: "AssignSub"
  input: "DS-CNN/conv_ds_1/pj_conv/batch_norm/moving_variance"
  input: "DS-CNN/conv_ds_1/pj_conv/batch_norm/AssignMovingAvg_1/mul"
  attr {
    key: "T"
    value {
      type: DT_FLOAT
    }
  }
  attr {
    key: "_class"
    value {
      list {
        s: "loc:@DS-CNN/conv_ds_1/pj_conv/batch_norm/moving_variance"
      }
    }
  }
  attr {
    key: "use_locking"
    value {
      b: false
    }
  }
}
node {
  name: "DS-CNN/conv_ds_1/pj_conv/batch_norm/Identity"
  op: "Identity"
  input: "DS-CNN/conv_ds_1/pj_conv/batch_norm/FusedBatchNorm"
  input: "^DS-CNN/conv_ds_1/pj_conv/batch_norm/AssignMovingAvg"
  input: "^DS-CNN/conv_ds_1/pj_conv/batch_norm/AssignMovingAvg_1"
  attr {
    key: "T"
    value {
      type: DT_FLOAT
    }
  }
}
node {
  name: "DS-CNN/conv_ds_2/exp_conv/weights/Initializer/random_uniform/shape"
  op: "Const"
  attr {
    key: "_class"
    value {
      list {
        s: "loc:@DS-CNN/conv_ds_2/exp_conv/weights"
      }
    }
  }
  attr {
    key: "dtype"
    value {
      type: DT_INT32
    }
  }
  attr {
    key: "value"
    value {
      tensor {
        dtype: DT_INT32
        tensor_shape {
          dim {
            size: 4
          }
        }
        tensor_content: "\001\000\000\000\001\000\000\000@\000\000\000\200\001\000\000"
      }
    }
  }
}
node {
  name: "DS-CNN/conv_ds_2/exp_conv/weights/Initializer/random_uniform/min"
  op: "Const"
  attr {
    key: "_class"
    value {
      list {
        s: "loc:@DS-CNN/conv_ds_2/exp_conv/weights"
      }
    }
  }
  attr {
    key: "dtype"
    value {
      type: DT_FLOAT
    }
  }
  attr {
    key: "value"
    value {
      tensor {
        dtype: DT_FLOAT
        tensor_shape {
        }
        float_val: -0.115727514029
      }
    }
  }
}
node {
  name: "DS-CNN/conv_ds_2/exp_conv/weights/Initializer/random_uniform/max"
  op: "Const"
  attr {
    key: "_class"
    value {
      list {
        s: "loc:@DS-CNN/conv_ds_2/exp_conv/weights"
      }
    }
  }
  attr {
    key: "dtype"
    value {
      type: DT_FLOAT
    }
  }
  attr {
    key: "value"
    value {
      tensor {
        dtype: DT_FLOAT
        tensor_shape {
        }
        float_val: 0.115727514029
      }
    }
  }
}
node {
  name: "DS-CNN/conv_ds_2/exp_conv/weights/Initializer/random_uniform/RandomUniform"
  op: "RandomUniform"
  input: "DS-CNN/conv_ds_2/exp_conv/weights/Initializer/random_uniform/shape"
  attr {
    key: "T"
    value {
      type: DT_INT32
    }
  }
  attr {
    key: "_class"
    value {
      list {
        s: "loc:@DS-CNN/conv_ds_2/exp_conv/weights"
      }
    }
  }
  attr {
    key: "dtype"
    value {
      type: DT_FLOAT
    }
  }
  attr {
    key: "seed"
    value {
      i: 0
    }
  }
  attr {
    key: "seed2"
    value {
      i: 0
    }
  }
}
node {
  name: "DS-CNN/conv_ds_2/exp_conv/weights/Initializer/random_uniform/sub"
  op: "Sub"
  input: "DS-CNN/conv_ds_2/exp_conv/weights/Initializer/random_uniform/max"
  input: "DS-CNN/conv_ds_2/exp_conv/weights/Initializer/random_uniform/min"
  attr {
    key: "T"
    value {
      type: DT_FLOAT
    }
  }
  attr {
    key: "_class"
    value {
      list {
        s: "loc:@DS-CNN/conv_ds_2/exp_conv/weights"
      }
    }
  }
}
node {
  name: "DS-CNN/conv_ds_2/exp_conv/weights/Initializer/random_uniform/mul"
  op: "Mul"
  input: "DS-CNN/conv_ds_2/exp_conv/weights/Initializer/random_uniform/RandomUniform"
  input: "DS-CNN/conv_ds_2/exp_conv/weights/Initializer/random_uniform/sub"
  attr {
    key: "T"
    value {
      type: DT_FLOAT
    }
  }
  attr {
    key: "_class"
    value {
      list {
        s: "loc:@DS-CNN/conv_ds_2/exp_conv/weights"
      }
    }
  }
}
node {
  name: "DS-CNN/conv_ds_2/exp_conv/weights/Initializer/random_uniform"
  op: "Add"
  input: "DS-CNN/conv_ds_2/exp_conv/weights/Initializer/random_uniform/mul"
  input: "DS-CNN/conv_ds_2/exp_conv/weights/Initializer/random_uniform/min"
  attr {
    key: "T"
    value {
      type: DT_FLOAT
    }
  }
  attr {
    key: "_class"
    value {
      list {
        s: "loc:@DS-CNN/conv_ds_2/exp_conv/weights"
      }
    }
  }
}
node {
  name: "DS-CNN/conv_ds_2/exp_conv/weights"
  op: "VariableV2"
  attr {
    key: "_class"
    value {
      list {
        s: "loc:@DS-CNN/conv_ds_2/exp_conv/weights"
      }
    }
  }
  attr {
    key: "container"
    value {
      s: ""
    }
  }
  attr {
    key: "dtype"
    value {
      type: DT_FLOAT
    }
  }
  attr {
    key: "shape"
    value {
      shape {
        dim {
          size: 1
        }
        dim {
          size: 1
        }
        dim {
          size: 64
        }
        dim {
          size: 384
        }
      }
    }
  }
  attr {
    key: "shared_name"
    value {
      s: ""
    }
  }
}
node {
  name: "DS-CNN/conv_ds_2/exp_conv/weights/Assign"
  op: "Assign"
  input: "DS-CNN/conv_ds_2/exp_conv/weights"
  input: "DS-CNN/conv_ds_2/exp_conv/weights/Initializer/random_uniform"
  attr {
    key: "T"
    value {
      type: DT_FLOAT
    }
  }
  attr {
    key: "_class"
    value {
      list {
        s: "loc:@DS-CNN/conv_ds_2/exp_conv/weights"
      }
    }
  }
  attr {
    key: "use_locking"
    value {
      b: true
    }
  }
  attr {
    key: "validate_shape"
    value {
      b: true
    }
  }
}
node {
  name: "DS-CNN/conv_ds_2/exp_conv/weights/read"
  op: "Identity"
  input: "DS-CNN/conv_ds_2/exp_conv/weights"
  attr {
    key: "T"
    value {
      type: DT_FLOAT
    }
  }
  attr {
    key: "_class"
    value {
      list {
        s: "loc:@DS-CNN/conv_ds_2/exp_conv/weights"
      }
    }
  }
}
node {
  name: "DS-CNN/conv_ds_2/exp_conv/biases/Initializer/zeros"
  op: "Const"
  attr {
    key: "_class"
    value {
      list {
        s: "loc:@DS-CNN/conv_ds_2/exp_conv/biases"
      }
    }
  }
  attr {
    key: "dtype"
    value {
      type: DT_FLOAT
    }
  }
  attr {
    key: "value"
    value {
      tensor {
        dtype: DT_FLOAT
        tensor_shape {
          dim {
            size: 384
          }
        }
        float_val: 0.0
      }
    }
  }
}
node {
  name: "DS-CNN/conv_ds_2/exp_conv/biases"
  op: "VariableV2"
  attr {
    key: "_class"
    value {
      list {
        s: "loc:@DS-CNN/conv_ds_2/exp_conv/biases"
      }
    }
  }
  attr {
    key: "container"
    value {
      s: ""
    }
  }
  attr {
    key: "dtype"
    value {
      type: DT_FLOAT
    }
  }
  attr {
    key: "shape"
    value {
      shape {
        dim {
          size: 384
        }
      }
    }
  }
  attr {
    key: "shared_name"
    value {
      s: ""
    }
  }
}
node {
  name: "DS-CNN/conv_ds_2/exp_conv/biases/Assign"
  op: "Assign"
  input: "DS-CNN/conv_ds_2/exp_conv/biases"
  input: "DS-CNN/conv_ds_2/exp_conv/biases/Initializer/zeros"
  attr {
    key: "T"
    value {
      type: DT_FLOAT
    }
  }
  attr {
    key: "_class"
    value {
      list {
        s: "loc:@DS-CNN/conv_ds_2/exp_conv/biases"
      }
    }
  }
  attr {
    key: "use_locking"
    value {
      b: true
    }
  }
  attr {
    key: "validate_shape"
    value {
      b: true
    }
  }
}
node {
  name: "DS-CNN/conv_ds_2/exp_conv/biases/read"
  op: "Identity"
  input: "DS-CNN/conv_ds_2/exp_conv/biases"
  attr {
    key: "T"
    value {
      type: DT_FLOAT
    }
  }
  attr {
    key: "_class"
    value {
      list {
        s: "loc:@DS-CNN/conv_ds_2/exp_conv/biases"
      }
    }
  }
}
node {
  name: "DS-CNN/conv_ds_2/exp_conv/dilation_rate"
  op: "Const"
  attr {
    key: "dtype"
    value {
      type: DT_INT32
    }
  }
  attr {
    key: "value"
    value {
      tensor {
        dtype: DT_INT32
        tensor_shape {
          dim {
            size: 2
          }
        }
        tensor_content: "\001\000\000\000\001\000\000\000"
      }
    }
  }
}
node {
  name: "DS-CNN/conv_ds_2/exp_conv/Conv2D"
  op: "Conv2D"
  input: "DS-CNN/conv_ds_1/pj_conv/batch_norm/Identity"
  input: "DS-CNN/conv_ds_2/exp_conv/weights/read"
  attr {
    key: "T"
    value {
      type: DT_FLOAT
    }
  }
  attr {
    key: "data_format"
    value {
      s: "NHWC"
    }
  }
  attr {
    key: "padding"
    value {
      s: "SAME"
    }
  }
  attr {
    key: "strides"
    value {
      list {
        i: 1
        i: 1
        i: 1
        i: 1
      }
    }
  }
  attr {
    key: "use_cudnn_on_gpu"
    value {
      b: true
    }
  }
}
node {
  name: "DS-CNN/conv_ds_2/exp_conv/BiasAdd"
  op: "BiasAdd"
  input: "DS-CNN/conv_ds_2/exp_conv/Conv2D"
  input: "DS-CNN/conv_ds_2/exp_conv/biases/read"
  attr {
    key: "T"
    value {
      type: DT_FLOAT
    }
  }
  attr {
    key: "data_format"
    value {
      s: "NHWC"
    }
  }
}
node {
  name: "DS-CNN/conv_ds_2/exp_conv/batch_norm/beta/Initializer/zeros"
  op: "Const"
  attr {
    key: "_class"
    value {
      list {
        s: "loc:@DS-CNN/conv_ds_2/exp_conv/batch_norm/beta"
      }
    }
  }
  attr {
    key: "dtype"
    value {
      type: DT_FLOAT
    }
  }
  attr {
    key: "value"
    value {
      tensor {
        dtype: DT_FLOAT
        tensor_shape {
          dim {
            size: 384
          }
        }
        float_val: 0.0
      }
    }
  }
}
node {
  name: "DS-CNN/conv_ds_2/exp_conv/batch_norm/beta"
  op: "VariableV2"
  attr {
    key: "_class"
    value {
      list {
        s: "loc:@DS-CNN/conv_ds_2/exp_conv/batch_norm/beta"
      }
    }
  }
  attr {
    key: "container"
    value {
      s: ""
    }
  }
  attr {
    key: "dtype"
    value {
      type: DT_FLOAT
    }
  }
  attr {
    key: "shape"
    value {
      shape {
        dim {
          size: 384
        }
      }
    }
  }
  attr {
    key: "shared_name"
    value {
      s: ""
    }
  }
}
node {
  name: "DS-CNN/conv_ds_2/exp_conv/batch_norm/beta/Assign"
  op: "Assign"
  input: "DS-CNN/conv_ds_2/exp_conv/batch_norm/beta"
  input: "DS-CNN/conv_ds_2/exp_conv/batch_norm/beta/Initializer/zeros"
  attr {
    key: "T"
    value {
      type: DT_FLOAT
    }
  }
  attr {
    key: "_class"
    value {
      list {
        s: "loc:@DS-CNN/conv_ds_2/exp_conv/batch_norm/beta"
      }
    }
  }
  attr {
    key: "use_locking"
    value {
      b: true
    }
  }
  attr {
    key: "validate_shape"
    value {
      b: true
    }
  }
}
node {
  name: "DS-CNN/conv_ds_2/exp_conv/batch_norm/beta/read"
  op: "Identity"
  input: "DS-CNN/conv_ds_2/exp_conv/batch_norm/beta"
  attr {
    key: "T"
    value {
      type: DT_FLOAT
    }
  }
  attr {
    key: "_class"
    value {
      list {
        s: "loc:@DS-CNN/conv_ds_2/exp_conv/batch_norm/beta"
      }
    }
  }
}
node {
  name: "DS-CNN/conv_ds_2/exp_conv/batch_norm/Const"
  op: "Const"
  attr {
    key: "dtype"
    value {
      type: DT_FLOAT
    }
  }
  attr {
    key: "value"
    value {
      tensor {
        dtype: DT_FLOAT
        tensor_shape {
          dim {
            size: 384
          }
        }
        float_val: 1.0
      }
    }
  }
}
node {
  name: "DS-CNN/conv_ds_2/exp_conv/batch_norm/moving_mean/Initializer/zeros"
  op: "Const"
  attr {
    key: "_class"
    value {
      list {
        s: "loc:@DS-CNN/conv_ds_2/exp_conv/batch_norm/moving_mean"
      }
    }
  }
  attr {
    key: "dtype"
    value {
      type: DT_FLOAT
    }
  }
  attr {
    key: "value"
    value {
      tensor {
        dtype: DT_FLOAT
        tensor_shape {
          dim {
            size: 384
          }
        }
        float_val: 0.0
      }
    }
  }
}
node {
  name: "DS-CNN/conv_ds_2/exp_conv/batch_norm/moving_mean"
  op: "VariableV2"
  attr {
    key: "_class"
    value {
      list {
        s: "loc:@DS-CNN/conv_ds_2/exp_conv/batch_norm/moving_mean"
      }
    }
  }
  attr {
    key: "container"
    value {
      s: ""
    }
  }
  attr {
    key: "dtype"
    value {
      type: DT_FLOAT
    }
  }
  attr {
    key: "shape"
    value {
      shape {
        dim {
          size: 384
        }
      }
    }
  }
  attr {
    key: "shared_name"
    value {
      s: ""
    }
  }
}
node {
  name: "DS-CNN/conv_ds_2/exp_conv/batch_norm/moving_mean/Assign"
  op: "Assign"
  input: "DS-CNN/conv_ds_2/exp_conv/batch_norm/moving_mean"
  input: "DS-CNN/conv_ds_2/exp_conv/batch_norm/moving_mean/Initializer/zeros"
  attr {
    key: "T"
    value {
      type: DT_FLOAT
    }
  }
  attr {
    key: "_class"
    value {
      list {
        s: "loc:@DS-CNN/conv_ds_2/exp_conv/batch_norm/moving_mean"
      }
    }
  }
  attr {
    key: "use_locking"
    value {
      b: true
    }
  }
  attr {
    key: "validate_shape"
    value {
      b: true
    }
  }
}
node {
  name: "DS-CNN/conv_ds_2/exp_conv/batch_norm/moving_mean/read"
  op: "Identity"
  input: "DS-CNN/conv_ds_2/exp_conv/batch_norm/moving_mean"
  attr {
    key: "T"
    value {
      type: DT_FLOAT
    }
  }
  attr {
    key: "_class"
    value {
      list {
        s: "loc:@DS-CNN/conv_ds_2/exp_conv/batch_norm/moving_mean"
      }
    }
  }
}
node {
  name: "DS-CNN/conv_ds_2/exp_conv/batch_norm/moving_variance/Initializer/ones"
  op: "Const"
  attr {
    key: "_class"
    value {
      list {
        s: "loc:@DS-CNN/conv_ds_2/exp_conv/batch_norm/moving_variance"
      }
    }
  }
  attr {
    key: "dtype"
    value {
      type: DT_FLOAT
    }
  }
  attr {
    key: "value"
    value {
      tensor {
        dtype: DT_FLOAT
        tensor_shape {
          dim {
            size: 384
          }
        }
        float_val: 1.0
      }
    }
  }
}
node {
  name: "DS-CNN/conv_ds_2/exp_conv/batch_norm/moving_variance"
  op: "VariableV2"
  attr {
    key: "_class"
    value {
      list {
        s: "loc:@DS-CNN/conv_ds_2/exp_conv/batch_norm/moving_variance"
      }
    }
  }
  attr {
    key: "container"
    value {
      s: ""
    }
  }
  attr {
    key: "dtype"
    value {
      type: DT_FLOAT
    }
  }
  attr {
    key: "shape"
    value {
      shape {
        dim {
          size: 384
        }
      }
    }
  }
  attr {
    key: "shared_name"
    value {
      s: ""
    }
  }
}
node {
  name: "DS-CNN/conv_ds_2/exp_conv/batch_norm/moving_variance/Assign"
  op: "Assign"
  input: "DS-CNN/conv_ds_2/exp_conv/batch_norm/moving_variance"
  input: "DS-CNN/conv_ds_2/exp_conv/batch_norm/moving_variance/Initializer/ones"
  attr {
    key: "T"
    value {
      type: DT_FLOAT
    }
  }
  attr {
    key: "_class"
    value {
      list {
        s: "loc:@DS-CNN/conv_ds_2/exp_conv/batch_norm/moving_variance"
      }
    }
  }
  attr {
    key: "use_locking"
    value {
      b: true
    }
  }
  attr {
    key: "validate_shape"
    value {
      b: true
    }
  }
}
node {
  name: "DS-CNN/conv_ds_2/exp_conv/batch_norm/moving_variance/read"
  op: "Identity"
  input: "DS-CNN/conv_ds_2/exp_conv/batch_norm/moving_variance"
  attr {
    key: "T"
    value {
      type: DT_FLOAT
    }
  }
  attr {
    key: "_class"
    value {
      list {
        s: "loc:@DS-CNN/conv_ds_2/exp_conv/batch_norm/moving_variance"
      }
    }
  }
}
node {
  name: "DS-CNN/conv_ds_2/exp_conv/batch_norm/Const_1"
  op: "Const"
  attr {
    key: "dtype"
    value {
      type: DT_FLOAT
    }
  }
  attr {
    key: "value"
    value {
      tensor {
        dtype: DT_FLOAT
        tensor_shape {
          dim {
          }
        }
      }
    }
  }
}
node {
  name: "DS-CNN/conv_ds_2/exp_conv/batch_norm/Const_2"
  op: "Const"
  attr {
    key: "dtype"
    value {
      type: DT_FLOAT
    }
  }
  attr {
    key: "value"
    value {
      tensor {
        dtype: DT_FLOAT
        tensor_shape {
          dim {
          }
        }
      }
    }
  }
}
node {
  name: "DS-CNN/conv_ds_2/exp_conv/batch_norm/FusedBatchNorm"
  op: "FusedBatchNorm"
  input: "DS-CNN/conv_ds_2/exp_conv/BiasAdd"
  input: "DS-CNN/conv_ds_2/exp_conv/batch_norm/Const"
  input: "DS-CNN/conv_ds_2/exp_conv/batch_norm/beta/read"
  input: "DS-CNN/conv_ds_2/exp_conv/batch_norm/Const_1"
  input: "DS-CNN/conv_ds_2/exp_conv/batch_norm/Const_2"
  attr {
    key: "T"
    value {
      type: DT_FLOAT
    }
  }
  attr {
    key: "data_format"
    value {
      s: "NHWC"
    }
  }
  attr {
    key: "epsilon"
    value {
      f: 0.0010000000475
    }
  }
  attr {
    key: "is_training"
    value {
      b: true
    }
  }
}
node {
  name: "DS-CNN/conv_ds_2/exp_conv/batch_norm/AssignMovingAvg/decay"
  op: "Const"
  attr {
    key: "_class"
    value {
      list {
        s: "loc:@DS-CNN/conv_ds_2/exp_conv/batch_norm/moving_mean"
      }
    }
  }
  attr {
    key: "dtype"
    value {
      type: DT_FLOAT
    }
  }
  attr {
    key: "value"
    value {
      tensor {
        dtype: DT_FLOAT
        tensor_shape {
        }
        float_val: 0.0399999991059
      }
    }
  }
}
node {
  name: "DS-CNN/conv_ds_2/exp_conv/batch_norm/AssignMovingAvg/sub"
  op: "Sub"
  input: "DS-CNN/conv_ds_2/exp_conv/batch_norm/moving_mean/read"
  input: "DS-CNN/conv_ds_2/exp_conv/batch_norm/FusedBatchNorm:1"
  attr {
    key: "T"
    value {
      type: DT_FLOAT
    }
  }
  attr {
    key: "_class"
    value {
      list {
        s: "loc:@DS-CNN/conv_ds_2/exp_conv/batch_norm/moving_mean"
      }
    }
  }
}
node {
  name: "DS-CNN/conv_ds_2/exp_conv/batch_norm/AssignMovingAvg/mul"
  op: "Mul"
  input: "DS-CNN/conv_ds_2/exp_conv/batch_norm/AssignMovingAvg/sub"
  input: "DS-CNN/conv_ds_2/exp_conv/batch_norm/AssignMovingAvg/decay"
  attr {
    key: "T"
    value {
      type: DT_FLOAT
    }
  }
  attr {
    key: "_class"
    value {
      list {
        s: "loc:@DS-CNN/conv_ds_2/exp_conv/batch_norm/moving_mean"
      }
    }
  }
}
node {
  name: "DS-CNN/conv_ds_2/exp_conv/batch_norm/AssignMovingAvg"
  op: "AssignSub"
  input: "DS-CNN/conv_ds_2/exp_conv/batch_norm/moving_mean"
  input: "DS-CNN/conv_ds_2/exp_conv/batch_norm/AssignMovingAvg/mul"
  attr {
    key: "T"
    value {
      type: DT_FLOAT
    }
  }
  attr {
    key: "_class"
    value {
      list {
        s: "loc:@DS-CNN/conv_ds_2/exp_conv/batch_norm/moving_mean"
      }
    }
  }
  attr {
    key: "use_locking"
    value {
      b: false
    }
  }
}
node {
  name: "DS-CNN/conv_ds_2/exp_conv/batch_norm/AssignMovingAvg_1/decay"
  op: "Const"
  attr {
    key: "_class"
    value {
      list {
        s: "loc:@DS-CNN/conv_ds_2/exp_conv/batch_norm/moving_variance"
      }
    }
  }
  attr {
    key: "dtype"
    value {
      type: DT_FLOAT
    }
  }
  attr {
    key: "value"
    value {
      tensor {
        dtype: DT_FLOAT
        tensor_shape {
        }
        float_val: 0.0399999991059
      }
    }
  }
}
node {
  name: "DS-CNN/conv_ds_2/exp_conv/batch_norm/AssignMovingAvg_1/sub"
  op: "Sub"
  input: "DS-CNN/conv_ds_2/exp_conv/batch_norm/moving_variance/read"
  input: "DS-CNN/conv_ds_2/exp_conv/batch_norm/FusedBatchNorm:2"
  attr {
    key: "T"
    value {
      type: DT_FLOAT
    }
  }
  attr {
    key: "_class"
    value {
      list {
        s: "loc:@DS-CNN/conv_ds_2/exp_conv/batch_norm/moving_variance"
      }
    }
  }
}
node {
  name: "DS-CNN/conv_ds_2/exp_conv/batch_norm/AssignMovingAvg_1/mul"
  op: "Mul"
  input: "DS-CNN/conv_ds_2/exp_conv/batch_norm/AssignMovingAvg_1/sub"
  input: "DS-CNN/conv_ds_2/exp_conv/batch_norm/AssignMovingAvg_1/decay"
  attr {
    key: "T"
    value {
      type: DT_FLOAT
    }
  }
  attr {
    key: "_class"
    value {
      list {
        s: "loc:@DS-CNN/conv_ds_2/exp_conv/batch_norm/moving_variance"
      }
    }
  }
}
node {
  name: "DS-CNN/conv_ds_2/exp_conv/batch_norm/AssignMovingAvg_1"
  op: "AssignSub"
  input: "DS-CNN/conv_ds_2/exp_conv/batch_norm/moving_variance"
  input: "DS-CNN/conv_ds_2/exp_conv/batch_norm/AssignMovingAvg_1/mul"
  attr {
    key: "T"
    value {
      type: DT_FLOAT
    }
  }
  attr {
    key: "_class"
    value {
      list {
        s: "loc:@DS-CNN/conv_ds_2/exp_conv/batch_norm/moving_variance"
      }
    }
  }
  attr {
    key: "use_locking"
    value {
      b: false
    }
  }
}
node {
  name: "DS-CNN/conv_ds_2/exp_conv/batch_norm/Identity"
  op: "Identity"
  input: "DS-CNN/conv_ds_2/exp_conv/batch_norm/FusedBatchNorm"
  input: "^DS-CNN/conv_ds_2/exp_conv/batch_norm/AssignMovingAvg"
  input: "^DS-CNN/conv_ds_2/exp_conv/batch_norm/AssignMovingAvg_1"
  attr {
    key: "T"
    value {
      type: DT_FLOAT
    }
  }
}
node {
  name: "DS-CNN/conv_ds_2/exp_conv/batch_norm/Relu6"
  op: "Relu6"
  input: "DS-CNN/conv_ds_2/exp_conv/batch_norm/Identity"
  attr {
    key: "T"
    value {
      type: DT_FLOAT
    }
  }
}
node {
  name: "DS-CNN/conv_ds_2/dw_conv/depthwise_weights/Initializer/random_uniform/shape"
  op: "Const"
  attr {
    key: "_class"
    value {
      list {
        s: "loc:@DS-CNN/conv_ds_2/dw_conv/depthwise_weights"
      }
    }
  }
  attr {
    key: "dtype"
    value {
      type: DT_INT32
    }
  }
  attr {
    key: "value"
    value {
      tensor {
        dtype: DT_INT32
        tensor_shape {
          dim {
            size: 4
          }
        }
        tensor_content: "\003\000\000\000\003\000\000\000\200\001\000\000\001\000\000\000"
      }
    }
  }
}
node {
  name: "DS-CNN/conv_ds_2/dw_conv/depthwise_weights/Initializer/random_uniform/min"
  op: "Const"
  attr {
    key: "_class"
    value {
      list {
        s: "loc:@DS-CNN/conv_ds_2/dw_conv/depthwise_weights"
      }
    }
  }
  attr {
    key: "dtype"
    value {
      type: DT_FLOAT
    }
  }
  attr {
    key: "value"
    value {
      tensor {
        dtype: DT_FLOAT
        tensor_shape {
        }
        float_val: -0.0416125170887
      }
    }
  }
}
node {
  name: "DS-CNN/conv_ds_2/dw_conv/depthwise_weights/Initializer/random_uniform/max"
  op: "Const"
  attr {
    key: "_class"
    value {
      list {
        s: "loc:@DS-CNN/conv_ds_2/dw_conv/depthwise_weights"
      }
    }
  }
  attr {
    key: "dtype"
    value {
      type: DT_FLOAT
    }
  }
  attr {
    key: "value"
    value {
      tensor {
        dtype: DT_FLOAT
        tensor_shape {
        }
        float_val: 0.0416125170887
      }
    }
  }
}
node {
  name: "DS-CNN/conv_ds_2/dw_conv/depthwise_weights/Initializer/random_uniform/RandomUniform"
  op: "RandomUniform"
  input: "DS-CNN/conv_ds_2/dw_conv/depthwise_weights/Initializer/random_uniform/shape"
  attr {
    key: "T"
    value {
      type: DT_INT32
    }
  }
  attr {
    key: "_class"
    value {
      list {
        s: "loc:@DS-CNN/conv_ds_2/dw_conv/depthwise_weights"
      }
    }
  }
  attr {
    key: "dtype"
    value {
      type: DT_FLOAT
    }
  }
  attr {
    key: "seed"
    value {
      i: 0
    }
  }
  attr {
    key: "seed2"
    value {
      i: 0
    }
  }
}
node {
  name: "DS-CNN/conv_ds_2/dw_conv/depthwise_weights/Initializer/random_uniform/sub"
  op: "Sub"
  input: "DS-CNN/conv_ds_2/dw_conv/depthwise_weights/Initializer/random_uniform/max"
  input: "DS-CNN/conv_ds_2/dw_conv/depthwise_weights/Initializer/random_uniform/min"
  attr {
    key: "T"
    value {
      type: DT_FLOAT
    }
  }
  attr {
    key: "_class"
    value {
      list {
        s: "loc:@DS-CNN/conv_ds_2/dw_conv/depthwise_weights"
      }
    }
  }
}
node {
  name: "DS-CNN/conv_ds_2/dw_conv/depthwise_weights/Initializer/random_uniform/mul"
  op: "Mul"
  input: "DS-CNN/conv_ds_2/dw_conv/depthwise_weights/Initializer/random_uniform/RandomUniform"
  input: "DS-CNN/conv_ds_2/dw_conv/depthwise_weights/Initializer/random_uniform/sub"
  attr {
    key: "T"
    value {
      type: DT_FLOAT
    }
  }
  attr {
    key: "_class"
    value {
      list {
        s: "loc:@DS-CNN/conv_ds_2/dw_conv/depthwise_weights"
      }
    }
  }
}
node {
  name: "DS-CNN/conv_ds_2/dw_conv/depthwise_weights/Initializer/random_uniform"
  op: "Add"
  input: "DS-CNN/conv_ds_2/dw_conv/depthwise_weights/Initializer/random_uniform/mul"
  input: "DS-CNN/conv_ds_2/dw_conv/depthwise_weights/Initializer/random_uniform/min"
  attr {
    key: "T"
    value {
      type: DT_FLOAT
    }
  }
  attr {
    key: "_class"
    value {
      list {
        s: "loc:@DS-CNN/conv_ds_2/dw_conv/depthwise_weights"
      }
    }
  }
}
node {
  name: "DS-CNN/conv_ds_2/dw_conv/depthwise_weights"
  op: "VariableV2"
  attr {
    key: "_class"
    value {
      list {
        s: "loc:@DS-CNN/conv_ds_2/dw_conv/depthwise_weights"
      }
    }
  }
  attr {
    key: "container"
    value {
      s: ""
    }
  }
  attr {
    key: "dtype"
    value {
      type: DT_FLOAT
    }
  }
  attr {
    key: "shape"
    value {
      shape {
        dim {
          size: 3
        }
        dim {
          size: 3
        }
        dim {
          size: 384
        }
        dim {
          size: 1
        }
      }
    }
  }
  attr {
    key: "shared_name"
    value {
      s: ""
    }
  }
}
node {
  name: "DS-CNN/conv_ds_2/dw_conv/depthwise_weights/Assign"
  op: "Assign"
  input: "DS-CNN/conv_ds_2/dw_conv/depthwise_weights"
  input: "DS-CNN/conv_ds_2/dw_conv/depthwise_weights/Initializer/random_uniform"
  attr {
    key: "T"
    value {
      type: DT_FLOAT
    }
  }
  attr {
    key: "_class"
    value {
      list {
        s: "loc:@DS-CNN/conv_ds_2/dw_conv/depthwise_weights"
      }
    }
  }
  attr {
    key: "use_locking"
    value {
      b: true
    }
  }
  attr {
    key: "validate_shape"
    value {
      b: true
    }
  }
}
node {
  name: "DS-CNN/conv_ds_2/dw_conv/depthwise_weights/read"
  op: "Identity"
  input: "DS-CNN/conv_ds_2/dw_conv/depthwise_weights"
  attr {
    key: "T"
    value {
      type: DT_FLOAT
    }
  }
  attr {
    key: "_class"
    value {
      list {
        s: "loc:@DS-CNN/conv_ds_2/dw_conv/depthwise_weights"
      }
    }
  }
}
node {
  name: "DS-CNN/conv_ds_2/dw_conv/depthwise/Shape"
  op: "Const"
  attr {
    key: "dtype"
    value {
      type: DT_INT32
    }
  }
  attr {
    key: "value"
    value {
      tensor {
        dtype: DT_INT32
        tensor_shape {
          dim {
            size: 4
          }
        }
        tensor_content: "\003\000\000\000\003\000\000\000\200\001\000\000\001\000\000\000"
      }
    }
  }
}
node {
  name: "DS-CNN/conv_ds_2/dw_conv/depthwise/dilation_rate"
  op: "Const"
  attr {
    key: "dtype"
    value {
      type: DT_INT32
    }
  }
  attr {
    key: "value"
    value {
      tensor {
        dtype: DT_INT32
        tensor_shape {
          dim {
            size: 2
          }
        }
        tensor_content: "\001\000\000\000\001\000\000\000"
      }
    }
  }
}
node {
  name: "DS-CNN/conv_ds_2/dw_conv/depthwise"
  op: "DepthwiseConv2dNative"
  input: "DS-CNN/conv_ds_2/exp_conv/batch_norm/Relu6"
  input: "DS-CNN/conv_ds_2/dw_conv/depthwise_weights/read"
  attr {
    key: "T"
    value {
      type: DT_FLOAT
    }
  }
  attr {
    key: "data_format"
    value {
      s: "NHWC"
    }
  }
  attr {
    key: "padding"
    value {
      s: "SAME"
    }
  }
  attr {
    key: "strides"
    value {
      list {
        i: 1
        i: 1
        i: 1
        i: 1
      }
    }
  }
}
node {
  name: "DS-CNN/conv_ds_2/dw_conv/biases/Initializer/zeros"
  op: "Const"
  attr {
    key: "_class"
    value {
      list {
        s: "loc:@DS-CNN/conv_ds_2/dw_conv/biases"
      }
    }
  }
  attr {
    key: "dtype"
    value {
      type: DT_FLOAT
    }
  }
  attr {
    key: "value"
    value {
      tensor {
        dtype: DT_FLOAT
        tensor_shape {
          dim {
            size: 384
          }
        }
        float_val: 0.0
      }
    }
  }
}
node {
  name: "DS-CNN/conv_ds_2/dw_conv/biases"
  op: "VariableV2"
  attr {
    key: "_class"
    value {
      list {
        s: "loc:@DS-CNN/conv_ds_2/dw_conv/biases"
      }
    }
  }
  attr {
    key: "container"
    value {
      s: ""
    }
  }
  attr {
    key: "dtype"
    value {
      type: DT_FLOAT
    }
  }
  attr {
    key: "shape"
    value {
      shape {
        dim {
          size: 384
        }
      }
    }
  }
  attr {
    key: "shared_name"
    value {
      s: ""
    }
  }
}
node {
  name: "DS-CNN/conv_ds_2/dw_conv/biases/Assign"
  op: "Assign"
  input: "DS-CNN/conv_ds_2/dw_conv/biases"
  input: "DS-CNN/conv_ds_2/dw_conv/biases/Initializer/zeros"
  attr {
    key: "T"
    value {
      type: DT_FLOAT
    }
  }
  attr {
    key: "_class"
    value {
      list {
        s: "loc:@DS-CNN/conv_ds_2/dw_conv/biases"
      }
    }
  }
  attr {
    key: "use_locking"
    value {
      b: true
    }
  }
  attr {
    key: "validate_shape"
    value {
      b: true
    }
  }
}
node {
  name: "DS-CNN/conv_ds_2/dw_conv/biases/read"
  op: "Identity"
  input: "DS-CNN/conv_ds_2/dw_conv/biases"
  attr {
    key: "T"
    value {
      type: DT_FLOAT
    }
  }
  attr {
    key: "_class"
    value {
      list {
        s: "loc:@DS-CNN/conv_ds_2/dw_conv/biases"
      }
    }
  }
}
node {
  name: "DS-CNN/conv_ds_2/dw_conv/BiasAdd"
  op: "BiasAdd"
  input: "DS-CNN/conv_ds_2/dw_conv/depthwise"
  input: "DS-CNN/conv_ds_2/dw_conv/biases/read"
  attr {
    key: "T"
    value {
      type: DT_FLOAT
    }
  }
  attr {
    key: "data_format"
    value {
      s: "NHWC"
    }
  }
}
node {
  name: "DS-CNN/conv_ds_2/dw_conv/batch_norm/beta/Initializer/zeros"
  op: "Const"
  attr {
    key: "_class"
    value {
      list {
        s: "loc:@DS-CNN/conv_ds_2/dw_conv/batch_norm/beta"
      }
    }
  }
  attr {
    key: "dtype"
    value {
      type: DT_FLOAT
    }
  }
  attr {
    key: "value"
    value {
      tensor {
        dtype: DT_FLOAT
        tensor_shape {
          dim {
            size: 384
          }
        }
        float_val: 0.0
      }
    }
  }
}
node {
  name: "DS-CNN/conv_ds_2/dw_conv/batch_norm/beta"
  op: "VariableV2"
  attr {
    key: "_class"
    value {
      list {
        s: "loc:@DS-CNN/conv_ds_2/dw_conv/batch_norm/beta"
      }
    }
  }
  attr {
    key: "container"
    value {
      s: ""
    }
  }
  attr {
    key: "dtype"
    value {
      type: DT_FLOAT
    }
  }
  attr {
    key: "shape"
    value {
      shape {
        dim {
          size: 384
        }
      }
    }
  }
  attr {
    key: "shared_name"
    value {
      s: ""
    }
  }
}
node {
  name: "DS-CNN/conv_ds_2/dw_conv/batch_norm/beta/Assign"
  op: "Assign"
  input: "DS-CNN/conv_ds_2/dw_conv/batch_norm/beta"
  input: "DS-CNN/conv_ds_2/dw_conv/batch_norm/beta/Initializer/zeros"
  attr {
    key: "T"
    value {
      type: DT_FLOAT
    }
  }
  attr {
    key: "_class"
    value {
      list {
        s: "loc:@DS-CNN/conv_ds_2/dw_conv/batch_norm/beta"
      }
    }
  }
  attr {
    key: "use_locking"
    value {
      b: true
    }
  }
  attr {
    key: "validate_shape"
    value {
      b: true
    }
  }
}
node {
  name: "DS-CNN/conv_ds_2/dw_conv/batch_norm/beta/read"
  op: "Identity"
  input: "DS-CNN/conv_ds_2/dw_conv/batch_norm/beta"
  attr {
    key: "T"
    value {
      type: DT_FLOAT
    }
  }
  attr {
    key: "_class"
    value {
      list {
        s: "loc:@DS-CNN/conv_ds_2/dw_conv/batch_norm/beta"
      }
    }
  }
}
node {
  name: "DS-CNN/conv_ds_2/dw_conv/batch_norm/Const"
  op: "Const"
  attr {
    key: "dtype"
    value {
      type: DT_FLOAT
    }
  }
  attr {
    key: "value"
    value {
      tensor {
        dtype: DT_FLOAT
        tensor_shape {
          dim {
            size: 384
          }
        }
        float_val: 1.0
      }
    }
  }
}
node {
  name: "DS-CNN/conv_ds_2/dw_conv/batch_norm/moving_mean/Initializer/zeros"
  op: "Const"
  attr {
    key: "_class"
    value {
      list {
        s: "loc:@DS-CNN/conv_ds_2/dw_conv/batch_norm/moving_mean"
      }
    }
  }
  attr {
    key: "dtype"
    value {
      type: DT_FLOAT
    }
  }
  attr {
    key: "value"
    value {
      tensor {
        dtype: DT_FLOAT
        tensor_shape {
          dim {
            size: 384
          }
        }
        float_val: 0.0
      }
    }
  }
}
node {
  name: "DS-CNN/conv_ds_2/dw_conv/batch_norm/moving_mean"
  op: "VariableV2"
  attr {
    key: "_class"
    value {
      list {
        s: "loc:@DS-CNN/conv_ds_2/dw_conv/batch_norm/moving_mean"
      }
    }
  }
  attr {
    key: "container"
    value {
      s: ""
    }
  }
  attr {
    key: "dtype"
    value {
      type: DT_FLOAT
    }
  }
  attr {
    key: "shape"
    value {
      shape {
        dim {
          size: 384
        }
      }
    }
  }
  attr {
    key: "shared_name"
    value {
      s: ""
    }
  }
}
node {
  name: "DS-CNN/conv_ds_2/dw_conv/batch_norm/moving_mean/Assign"
  op: "Assign"
  input: "DS-CNN/conv_ds_2/dw_conv/batch_norm/moving_mean"
  input: "DS-CNN/conv_ds_2/dw_conv/batch_norm/moving_mean/Initializer/zeros"
  attr {
    key: "T"
    value {
      type: DT_FLOAT
    }
  }
  attr {
    key: "_class"
    value {
      list {
        s: "loc:@DS-CNN/conv_ds_2/dw_conv/batch_norm/moving_mean"
      }
    }
  }
  attr {
    key: "use_locking"
    value {
      b: true
    }
  }
  attr {
    key: "validate_shape"
    value {
      b: true
    }
  }
}
node {
  name: "DS-CNN/conv_ds_2/dw_conv/batch_norm/moving_mean/read"
  op: "Identity"
  input: "DS-CNN/conv_ds_2/dw_conv/batch_norm/moving_mean"
  attr {
    key: "T"
    value {
      type: DT_FLOAT
    }
  }
  attr {
    key: "_class"
    value {
      list {
        s: "loc:@DS-CNN/conv_ds_2/dw_conv/batch_norm/moving_mean"
      }
    }
  }
}
node {
  name: "DS-CNN/conv_ds_2/dw_conv/batch_norm/moving_variance/Initializer/ones"
  op: "Const"
  attr {
    key: "_class"
    value {
      list {
        s: "loc:@DS-CNN/conv_ds_2/dw_conv/batch_norm/moving_variance"
      }
    }
  }
  attr {
    key: "dtype"
    value {
      type: DT_FLOAT
    }
  }
  attr {
    key: "value"
    value {
      tensor {
        dtype: DT_FLOAT
        tensor_shape {
          dim {
            size: 384
          }
        }
        float_val: 1.0
      }
    }
  }
}
node {
  name: "DS-CNN/conv_ds_2/dw_conv/batch_norm/moving_variance"
  op: "VariableV2"
  attr {
    key: "_class"
    value {
      list {
        s: "loc:@DS-CNN/conv_ds_2/dw_conv/batch_norm/moving_variance"
      }
    }
  }
  attr {
    key: "container"
    value {
      s: ""
    }
  }
  attr {
    key: "dtype"
    value {
      type: DT_FLOAT
    }
  }
  attr {
    key: "shape"
    value {
      shape {
        dim {
          size: 384
        }
      }
    }
  }
  attr {
    key: "shared_name"
    value {
      s: ""
    }
  }
}
node {
  name: "DS-CNN/conv_ds_2/dw_conv/batch_norm/moving_variance/Assign"
  op: "Assign"
  input: "DS-CNN/conv_ds_2/dw_conv/batch_norm/moving_variance"
  input: "DS-CNN/conv_ds_2/dw_conv/batch_norm/moving_variance/Initializer/ones"
  attr {
    key: "T"
    value {
      type: DT_FLOAT
    }
  }
  attr {
    key: "_class"
    value {
      list {
        s: "loc:@DS-CNN/conv_ds_2/dw_conv/batch_norm/moving_variance"
      }
    }
  }
  attr {
    key: "use_locking"
    value {
      b: true
    }
  }
  attr {
    key: "validate_shape"
    value {
      b: true
    }
  }
}
node {
  name: "DS-CNN/conv_ds_2/dw_conv/batch_norm/moving_variance/read"
  op: "Identity"
  input: "DS-CNN/conv_ds_2/dw_conv/batch_norm/moving_variance"
  attr {
    key: "T"
    value {
      type: DT_FLOAT
    }
  }
  attr {
    key: "_class"
    value {
      list {
        s: "loc:@DS-CNN/conv_ds_2/dw_conv/batch_norm/moving_variance"
      }
    }
  }
}
node {
  name: "DS-CNN/conv_ds_2/dw_conv/batch_norm/Const_1"
  op: "Const"
  attr {
    key: "dtype"
    value {
      type: DT_FLOAT
    }
  }
  attr {
    key: "value"
    value {
      tensor {
        dtype: DT_FLOAT
        tensor_shape {
          dim {
          }
        }
      }
    }
  }
}
node {
  name: "DS-CNN/conv_ds_2/dw_conv/batch_norm/Const_2"
  op: "Const"
  attr {
    key: "dtype"
    value {
      type: DT_FLOAT
    }
  }
  attr {
    key: "value"
    value {
      tensor {
        dtype: DT_FLOAT
        tensor_shape {
          dim {
          }
        }
      }
    }
  }
}
node {
  name: "DS-CNN/conv_ds_2/dw_conv/batch_norm/FusedBatchNorm"
  op: "FusedBatchNorm"
  input: "DS-CNN/conv_ds_2/dw_conv/BiasAdd"
  input: "DS-CNN/conv_ds_2/dw_conv/batch_norm/Const"
  input: "DS-CNN/conv_ds_2/dw_conv/batch_norm/beta/read"
  input: "DS-CNN/conv_ds_2/dw_conv/batch_norm/Const_1"
  input: "DS-CNN/conv_ds_2/dw_conv/batch_norm/Const_2"
  attr {
    key: "T"
    value {
      type: DT_FLOAT
    }
  }
  attr {
    key: "data_format"
    value {
      s: "NHWC"
    }
  }
  attr {
    key: "epsilon"
    value {
      f: 0.0010000000475
    }
  }
  attr {
    key: "is_training"
    value {
      b: true
    }
  }
}
node {
  name: "DS-CNN/conv_ds_2/dw_conv/batch_norm/AssignMovingAvg/decay"
  op: "Const"
  attr {
    key: "_class"
    value {
      list {
        s: "loc:@DS-CNN/conv_ds_2/dw_conv/batch_norm/moving_mean"
      }
    }
  }
  attr {
    key: "dtype"
    value {
      type: DT_FLOAT
    }
  }
  attr {
    key: "value"
    value {
      tensor {
        dtype: DT_FLOAT
        tensor_shape {
        }
        float_val: 0.0399999991059
      }
    }
  }
}
node {
  name: "DS-CNN/conv_ds_2/dw_conv/batch_norm/AssignMovingAvg/sub"
  op: "Sub"
  input: "DS-CNN/conv_ds_2/dw_conv/batch_norm/moving_mean/read"
  input: "DS-CNN/conv_ds_2/dw_conv/batch_norm/FusedBatchNorm:1"
  attr {
    key: "T"
    value {
      type: DT_FLOAT
    }
  }
  attr {
    key: "_class"
    value {
      list {
        s: "loc:@DS-CNN/conv_ds_2/dw_conv/batch_norm/moving_mean"
      }
    }
  }
}
node {
  name: "DS-CNN/conv_ds_2/dw_conv/batch_norm/AssignMovingAvg/mul"
  op: "Mul"
  input: "DS-CNN/conv_ds_2/dw_conv/batch_norm/AssignMovingAvg/sub"
  input: "DS-CNN/conv_ds_2/dw_conv/batch_norm/AssignMovingAvg/decay"
  attr {
    key: "T"
    value {
      type: DT_FLOAT
    }
  }
  attr {
    key: "_class"
    value {
      list {
        s: "loc:@DS-CNN/conv_ds_2/dw_conv/batch_norm/moving_mean"
      }
    }
  }
}
node {
  name: "DS-CNN/conv_ds_2/dw_conv/batch_norm/AssignMovingAvg"
  op: "AssignSub"
  input: "DS-CNN/conv_ds_2/dw_conv/batch_norm/moving_mean"
  input: "DS-CNN/conv_ds_2/dw_conv/batch_norm/AssignMovingAvg/mul"
  attr {
    key: "T"
    value {
      type: DT_FLOAT
    }
  }
  attr {
    key: "_class"
    value {
      list {
        s: "loc:@DS-CNN/conv_ds_2/dw_conv/batch_norm/moving_mean"
      }
    }
  }
  attr {
    key: "use_locking"
    value {
      b: false
    }
  }
}
node {
  name: "DS-CNN/conv_ds_2/dw_conv/batch_norm/AssignMovingAvg_1/decay"
  op: "Const"
  attr {
    key: "_class"
    value {
      list {
        s: "loc:@DS-CNN/conv_ds_2/dw_conv/batch_norm/moving_variance"
      }
    }
  }
  attr {
    key: "dtype"
    value {
      type: DT_FLOAT
    }
  }
  attr {
    key: "value"
    value {
      tensor {
        dtype: DT_FLOAT
        tensor_shape {
        }
        float_val: 0.0399999991059
      }
    }
  }
}
node {
  name: "DS-CNN/conv_ds_2/dw_conv/batch_norm/AssignMovingAvg_1/sub"
  op: "Sub"
  input: "DS-CNN/conv_ds_2/dw_conv/batch_norm/moving_variance/read"
  input: "DS-CNN/conv_ds_2/dw_conv/batch_norm/FusedBatchNorm:2"
  attr {
    key: "T"
    value {
      type: DT_FLOAT
    }
  }
  attr {
    key: "_class"
    value {
      list {
        s: "loc:@DS-CNN/conv_ds_2/dw_conv/batch_norm/moving_variance"
      }
    }
  }
}
node {
  name: "DS-CNN/conv_ds_2/dw_conv/batch_norm/AssignMovingAvg_1/mul"
  op: "Mul"
  input: "DS-CNN/conv_ds_2/dw_conv/batch_norm/AssignMovingAvg_1/sub"
  input: "DS-CNN/conv_ds_2/dw_conv/batch_norm/AssignMovingAvg_1/decay"
  attr {
    key: "T"
    value {
      type: DT_FLOAT
    }
  }
  attr {
    key: "_class"
    value {
      list {
        s: "loc:@DS-CNN/conv_ds_2/dw_conv/batch_norm/moving_variance"
      }
    }
  }
}
node {
  name: "DS-CNN/conv_ds_2/dw_conv/batch_norm/AssignMovingAvg_1"
  op: "AssignSub"
  input: "DS-CNN/conv_ds_2/dw_conv/batch_norm/moving_variance"
  input: "DS-CNN/conv_ds_2/dw_conv/batch_norm/AssignMovingAvg_1/mul"
  attr {
    key: "T"
    value {
      type: DT_FLOAT
    }
  }
  attr {
    key: "_class"
    value {
      list {
        s: "loc:@DS-CNN/conv_ds_2/dw_conv/batch_norm/moving_variance"
      }
    }
  }
  attr {
    key: "use_locking"
    value {
      b: false
    }
  }
}
node {
  name: "DS-CNN/conv_ds_2/dw_conv/batch_norm/Identity"
  op: "Identity"
  input: "DS-CNN/conv_ds_2/dw_conv/batch_norm/FusedBatchNorm"
  input: "^DS-CNN/conv_ds_2/dw_conv/batch_norm/AssignMovingAvg"
  input: "^DS-CNN/conv_ds_2/dw_conv/batch_norm/AssignMovingAvg_1"
  attr {
    key: "T"
    value {
      type: DT_FLOAT
    }
  }
}
node {
  name: "DS-CNN/conv_ds_2/dw_conv/batch_norm/Relu6"
  op: "Relu6"
  input: "DS-CNN/conv_ds_2/dw_conv/batch_norm/Identity"
  attr {
    key: "T"
    value {
      type: DT_FLOAT
    }
  }
}
node {
  name: "DS-CNN/conv_ds_2/pj_conv/weights/Initializer/random_uniform/shape"
  op: "Const"
  attr {
    key: "_class"
    value {
      list {
        s: "loc:@DS-CNN/conv_ds_2/pj_conv/weights"
      }
    }
  }
  attr {
    key: "dtype"
    value {
      type: DT_INT32
    }
  }
  attr {
    key: "value"
    value {
      tensor {
        dtype: DT_INT32
        tensor_shape {
          dim {
            size: 4
          }
        }
        tensor_content: "\001\000\000\000\001\000\000\000\200\001\000\000 \000\000\000"
      }
    }
  }
}
node {
  name: "DS-CNN/conv_ds_2/pj_conv/weights/Initializer/random_uniform/min"
  op: "Const"
  attr {
    key: "_class"
    value {
      list {
        s: "loc:@DS-CNN/conv_ds_2/pj_conv/weights"
      }
    }
  }
  attr {
    key: "dtype"
    value {
      type: DT_FLOAT
    }
  }
  attr {
    key: "value"
    value {
      tensor {
        dtype: DT_FLOAT
        tensor_shape {
        }
        float_val: -0.120096117258
      }
    }
  }
}
node {
  name: "DS-CNN/conv_ds_2/pj_conv/weights/Initializer/random_uniform/max"
  op: "Const"
  attr {
    key: "_class"
    value {
      list {
        s: "loc:@DS-CNN/conv_ds_2/pj_conv/weights"
      }
    }
  }
  attr {
    key: "dtype"
    value {
      type: DT_FLOAT
    }
  }
  attr {
    key: "value"
    value {
      tensor {
        dtype: DT_FLOAT
        tensor_shape {
        }
        float_val: 0.120096117258
      }
    }
  }
}
node {
  name: "DS-CNN/conv_ds_2/pj_conv/weights/Initializer/random_uniform/RandomUniform"
  op: "RandomUniform"
  input: "DS-CNN/conv_ds_2/pj_conv/weights/Initializer/random_uniform/shape"
  attr {
    key: "T"
    value {
      type: DT_INT32
    }
  }
  attr {
    key: "_class"
    value {
      list {
        s: "loc:@DS-CNN/conv_ds_2/pj_conv/weights"
      }
    }
  }
  attr {
    key: "dtype"
    value {
      type: DT_FLOAT
    }
  }
  attr {
    key: "seed"
    value {
      i: 0
    }
  }
  attr {
    key: "seed2"
    value {
      i: 0
    }
  }
}
node {
  name: "DS-CNN/conv_ds_2/pj_conv/weights/Initializer/random_uniform/sub"
  op: "Sub"
  input: "DS-CNN/conv_ds_2/pj_conv/weights/Initializer/random_uniform/max"
  input: "DS-CNN/conv_ds_2/pj_conv/weights/Initializer/random_uniform/min"
  attr {
    key: "T"
    value {
      type: DT_FLOAT
    }
  }
  attr {
    key: "_class"
    value {
      list {
        s: "loc:@DS-CNN/conv_ds_2/pj_conv/weights"
      }
    }
  }
}
node {
  name: "DS-CNN/conv_ds_2/pj_conv/weights/Initializer/random_uniform/mul"
  op: "Mul"
  input: "DS-CNN/conv_ds_2/pj_conv/weights/Initializer/random_uniform/RandomUniform"
  input: "DS-CNN/conv_ds_2/pj_conv/weights/Initializer/random_uniform/sub"
  attr {
    key: "T"
    value {
      type: DT_FLOAT
    }
  }
  attr {
    key: "_class"
    value {
      list {
        s: "loc:@DS-CNN/conv_ds_2/pj_conv/weights"
      }
    }
  }
}
node {
  name: "DS-CNN/conv_ds_2/pj_conv/weights/Initializer/random_uniform"
  op: "Add"
  input: "DS-CNN/conv_ds_2/pj_conv/weights/Initializer/random_uniform/mul"
  input: "DS-CNN/conv_ds_2/pj_conv/weights/Initializer/random_uniform/min"
  attr {
    key: "T"
    value {
      type: DT_FLOAT
    }
  }
  attr {
    key: "_class"
    value {
      list {
        s: "loc:@DS-CNN/conv_ds_2/pj_conv/weights"
      }
    }
  }
}
node {
  name: "DS-CNN/conv_ds_2/pj_conv/weights"
  op: "VariableV2"
  attr {
    key: "_class"
    value {
      list {
        s: "loc:@DS-CNN/conv_ds_2/pj_conv/weights"
      }
    }
  }
  attr {
    key: "container"
    value {
      s: ""
    }
  }
  attr {
    key: "dtype"
    value {
      type: DT_FLOAT
    }
  }
  attr {
    key: "shape"
    value {
      shape {
        dim {
          size: 1
        }
        dim {
          size: 1
        }
        dim {
          size: 384
        }
        dim {
          size: 32
        }
      }
    }
  }
  attr {
    key: "shared_name"
    value {
      s: ""
    }
  }
}
node {
  name: "DS-CNN/conv_ds_2/pj_conv/weights/Assign"
  op: "Assign"
  input: "DS-CNN/conv_ds_2/pj_conv/weights"
  input: "DS-CNN/conv_ds_2/pj_conv/weights/Initializer/random_uniform"
  attr {
    key: "T"
    value {
      type: DT_FLOAT
    }
  }
  attr {
    key: "_class"
    value {
      list {
        s: "loc:@DS-CNN/conv_ds_2/pj_conv/weights"
      }
    }
  }
  attr {
    key: "use_locking"
    value {
      b: true
    }
  }
  attr {
    key: "validate_shape"
    value {
      b: true
    }
  }
}
node {
  name: "DS-CNN/conv_ds_2/pj_conv/weights/read"
  op: "Identity"
  input: "DS-CNN/conv_ds_2/pj_conv/weights"
  attr {
    key: "T"
    value {
      type: DT_FLOAT
    }
  }
  attr {
    key: "_class"
    value {
      list {
        s: "loc:@DS-CNN/conv_ds_2/pj_conv/weights"
      }
    }
  }
}
node {
  name: "DS-CNN/conv_ds_2/pj_conv/biases/Initializer/zeros"
  op: "Const"
  attr {
    key: "_class"
    value {
      list {
        s: "loc:@DS-CNN/conv_ds_2/pj_conv/biases"
      }
    }
  }
  attr {
    key: "dtype"
    value {
      type: DT_FLOAT
    }
  }
  attr {
    key: "value"
    value {
      tensor {
        dtype: DT_FLOAT
        tensor_shape {
          dim {
            size: 32
          }
        }
        float_val: 0.0
      }
    }
  }
}
node {
  name: "DS-CNN/conv_ds_2/pj_conv/biases"
  op: "VariableV2"
  attr {
    key: "_class"
    value {
      list {
        s: "loc:@DS-CNN/conv_ds_2/pj_conv/biases"
      }
    }
  }
  attr {
    key: "container"
    value {
      s: ""
    }
  }
  attr {
    key: "dtype"
    value {
      type: DT_FLOAT
    }
  }
  attr {
    key: "shape"
    value {
      shape {
        dim {
          size: 32
        }
      }
    }
  }
  attr {
    key: "shared_name"
    value {
      s: ""
    }
  }
}
node {
  name: "DS-CNN/conv_ds_2/pj_conv/biases/Assign"
  op: "Assign"
  input: "DS-CNN/conv_ds_2/pj_conv/biases"
  input: "DS-CNN/conv_ds_2/pj_conv/biases/Initializer/zeros"
  attr {
    key: "T"
    value {
      type: DT_FLOAT
    }
  }
  attr {
    key: "_class"
    value {
      list {
        s: "loc:@DS-CNN/conv_ds_2/pj_conv/biases"
      }
    }
  }
  attr {
    key: "use_locking"
    value {
      b: true
    }
  }
  attr {
    key: "validate_shape"
    value {
      b: true
    }
  }
}
node {
  name: "DS-CNN/conv_ds_2/pj_conv/biases/read"
  op: "Identity"
  input: "DS-CNN/conv_ds_2/pj_conv/biases"
  attr {
    key: "T"
    value {
      type: DT_FLOAT
    }
  }
  attr {
    key: "_class"
    value {
      list {
        s: "loc:@DS-CNN/conv_ds_2/pj_conv/biases"
      }
    }
  }
}
node {
  name: "DS-CNN/conv_ds_2/pj_conv/dilation_rate"
  op: "Const"
  attr {
    key: "dtype"
    value {
      type: DT_INT32
    }
  }
  attr {
    key: "value"
    value {
      tensor {
        dtype: DT_INT32
        tensor_shape {
          dim {
            size: 2
          }
        }
        tensor_content: "\001\000\000\000\001\000\000\000"
      }
    }
  }
}
node {
  name: "DS-CNN/conv_ds_2/pj_conv/Conv2D"
  op: "Conv2D"
  input: "DS-CNN/conv_ds_2/dw_conv/batch_norm/Relu6"
  input: "DS-CNN/conv_ds_2/pj_conv/weights/read"
  attr {
    key: "T"
    value {
      type: DT_FLOAT
    }
  }
  attr {
    key: "data_format"
    value {
      s: "NHWC"
    }
  }
  attr {
    key: "padding"
    value {
      s: "SAME"
    }
  }
  attr {
    key: "strides"
    value {
      list {
        i: 1
        i: 1
        i: 1
        i: 1
      }
    }
  }
  attr {
    key: "use_cudnn_on_gpu"
    value {
      b: true
    }
  }
}
node {
  name: "DS-CNN/conv_ds_2/pj_conv/BiasAdd"
  op: "BiasAdd"
  input: "DS-CNN/conv_ds_2/pj_conv/Conv2D"
  input: "DS-CNN/conv_ds_2/pj_conv/biases/read"
  attr {
    key: "T"
    value {
      type: DT_FLOAT
    }
  }
  attr {
    key: "data_format"
    value {
      s: "NHWC"
    }
  }
}
node {
  name: "DS-CNN/conv_ds_2/pj_conv/batch_norm/beta/Initializer/zeros"
  op: "Const"
  attr {
    key: "_class"
    value {
      list {
        s: "loc:@DS-CNN/conv_ds_2/pj_conv/batch_norm/beta"
      }
    }
  }
  attr {
    key: "dtype"
    value {
      type: DT_FLOAT
    }
  }
  attr {
    key: "value"
    value {
      tensor {
        dtype: DT_FLOAT
        tensor_shape {
          dim {
            size: 32
          }
        }
        float_val: 0.0
      }
    }
  }
}
node {
  name: "DS-CNN/conv_ds_2/pj_conv/batch_norm/beta"
  op: "VariableV2"
  attr {
    key: "_class"
    value {
      list {
        s: "loc:@DS-CNN/conv_ds_2/pj_conv/batch_norm/beta"
      }
    }
  }
  attr {
    key: "container"
    value {
      s: ""
    }
  }
  attr {
    key: "dtype"
    value {
      type: DT_FLOAT
    }
  }
  attr {
    key: "shape"
    value {
      shape {
        dim {
          size: 32
        }
      }
    }
  }
  attr {
    key: "shared_name"
    value {
      s: ""
    }
  }
}
node {
  name: "DS-CNN/conv_ds_2/pj_conv/batch_norm/beta/Assign"
  op: "Assign"
  input: "DS-CNN/conv_ds_2/pj_conv/batch_norm/beta"
  input: "DS-CNN/conv_ds_2/pj_conv/batch_norm/beta/Initializer/zeros"
  attr {
    key: "T"
    value {
      type: DT_FLOAT
    }
  }
  attr {
    key: "_class"
    value {
      list {
        s: "loc:@DS-CNN/conv_ds_2/pj_conv/batch_norm/beta"
      }
    }
  }
  attr {
    key: "use_locking"
    value {
      b: true
    }
  }
  attr {
    key: "validate_shape"
    value {
      b: true
    }
  }
}
node {
  name: "DS-CNN/conv_ds_2/pj_conv/batch_norm/beta/read"
  op: "Identity"
  input: "DS-CNN/conv_ds_2/pj_conv/batch_norm/beta"
  attr {
    key: "T"
    value {
      type: DT_FLOAT
    }
  }
  attr {
    key: "_class"
    value {
      list {
        s: "loc:@DS-CNN/conv_ds_2/pj_conv/batch_norm/beta"
      }
    }
  }
}
node {
  name: "DS-CNN/conv_ds_2/pj_conv/batch_norm/Const"
  op: "Const"
  attr {
    key: "dtype"
    value {
      type: DT_FLOAT
    }
  }
  attr {
    key: "value"
    value {
      tensor {
        dtype: DT_FLOAT
        tensor_shape {
          dim {
            size: 32
          }
        }
        float_val: 1.0
      }
    }
  }
}
node {
  name: "DS-CNN/conv_ds_2/pj_conv/batch_norm/moving_mean/Initializer/zeros"
  op: "Const"
  attr {
    key: "_class"
    value {
      list {
        s: "loc:@DS-CNN/conv_ds_2/pj_conv/batch_norm/moving_mean"
      }
    }
  }
  attr {
    key: "dtype"
    value {
      type: DT_FLOAT
    }
  }
  attr {
    key: "value"
    value {
      tensor {
        dtype: DT_FLOAT
        tensor_shape {
          dim {
            size: 32
          }
        }
        float_val: 0.0
      }
    }
  }
}
node {
  name: "DS-CNN/conv_ds_2/pj_conv/batch_norm/moving_mean"
  op: "VariableV2"
  attr {
    key: "_class"
    value {
      list {
        s: "loc:@DS-CNN/conv_ds_2/pj_conv/batch_norm/moving_mean"
      }
    }
  }
  attr {
    key: "container"
    value {
      s: ""
    }
  }
  attr {
    key: "dtype"
    value {
      type: DT_FLOAT
    }
  }
  attr {
    key: "shape"
    value {
      shape {
        dim {
          size: 32
        }
      }
    }
  }
  attr {
    key: "shared_name"
    value {
      s: ""
    }
  }
}
node {
  name: "DS-CNN/conv_ds_2/pj_conv/batch_norm/moving_mean/Assign"
  op: "Assign"
  input: "DS-CNN/conv_ds_2/pj_conv/batch_norm/moving_mean"
  input: "DS-CNN/conv_ds_2/pj_conv/batch_norm/moving_mean/Initializer/zeros"
  attr {
    key: "T"
    value {
      type: DT_FLOAT
    }
  }
  attr {
    key: "_class"
    value {
      list {
        s: "loc:@DS-CNN/conv_ds_2/pj_conv/batch_norm/moving_mean"
      }
    }
  }
  attr {
    key: "use_locking"
    value {
      b: true
    }
  }
  attr {
    key: "validate_shape"
    value {
      b: true
    }
  }
}
node {
  name: "DS-CNN/conv_ds_2/pj_conv/batch_norm/moving_mean/read"
  op: "Identity"
  input: "DS-CNN/conv_ds_2/pj_conv/batch_norm/moving_mean"
  attr {
    key: "T"
    value {
      type: DT_FLOAT
    }
  }
  attr {
    key: "_class"
    value {
      list {
        s: "loc:@DS-CNN/conv_ds_2/pj_conv/batch_norm/moving_mean"
      }
    }
  }
}
node {
  name: "DS-CNN/conv_ds_2/pj_conv/batch_norm/moving_variance/Initializer/ones"
  op: "Const"
  attr {
    key: "_class"
    value {
      list {
        s: "loc:@DS-CNN/conv_ds_2/pj_conv/batch_norm/moving_variance"
      }
    }
  }
  attr {
    key: "dtype"
    value {
      type: DT_FLOAT
    }
  }
  attr {
    key: "value"
    value {
      tensor {
        dtype: DT_FLOAT
        tensor_shape {
          dim {
            size: 32
          }
        }
        float_val: 1.0
      }
    }
  }
}
node {
  name: "DS-CNN/conv_ds_2/pj_conv/batch_norm/moving_variance"
  op: "VariableV2"
  attr {
    key: "_class"
    value {
      list {
        s: "loc:@DS-CNN/conv_ds_2/pj_conv/batch_norm/moving_variance"
      }
    }
  }
  attr {
    key: "container"
    value {
      s: ""
    }
  }
  attr {
    key: "dtype"
    value {
      type: DT_FLOAT
    }
  }
  attr {
    key: "shape"
    value {
      shape {
        dim {
          size: 32
        }
      }
    }
  }
  attr {
    key: "shared_name"
    value {
      s: ""
    }
  }
}
node {
  name: "DS-CNN/conv_ds_2/pj_conv/batch_norm/moving_variance/Assign"
  op: "Assign"
  input: "DS-CNN/conv_ds_2/pj_conv/batch_norm/moving_variance"
  input: "DS-CNN/conv_ds_2/pj_conv/batch_norm/moving_variance/Initializer/ones"
  attr {
    key: "T"
    value {
      type: DT_FLOAT
    }
  }
  attr {
    key: "_class"
    value {
      list {
        s: "loc:@DS-CNN/conv_ds_2/pj_conv/batch_norm/moving_variance"
      }
    }
  }
  attr {
    key: "use_locking"
    value {
      b: true
    }
  }
  attr {
    key: "validate_shape"
    value {
      b: true
    }
  }
}
node {
  name: "DS-CNN/conv_ds_2/pj_conv/batch_norm/moving_variance/read"
  op: "Identity"
  input: "DS-CNN/conv_ds_2/pj_conv/batch_norm/moving_variance"
  attr {
    key: "T"
    value {
      type: DT_FLOAT
    }
  }
  attr {
    key: "_class"
    value {
      list {
        s: "loc:@DS-CNN/conv_ds_2/pj_conv/batch_norm/moving_variance"
      }
    }
  }
}
node {
  name: "DS-CNN/conv_ds_2/pj_conv/batch_norm/Const_1"
  op: "Const"
  attr {
    key: "dtype"
    value {
      type: DT_FLOAT
    }
  }
  attr {
    key: "value"
    value {
      tensor {
        dtype: DT_FLOAT
        tensor_shape {
          dim {
          }
        }
      }
    }
  }
}
node {
  name: "DS-CNN/conv_ds_2/pj_conv/batch_norm/Const_2"
  op: "Const"
  attr {
    key: "dtype"
    value {
      type: DT_FLOAT
    }
  }
  attr {
    key: "value"
    value {
      tensor {
        dtype: DT_FLOAT
        tensor_shape {
          dim {
          }
        }
      }
    }
  }
}
node {
  name: "DS-CNN/conv_ds_2/pj_conv/batch_norm/FusedBatchNorm"
  op: "FusedBatchNorm"
  input: "DS-CNN/conv_ds_2/pj_conv/BiasAdd"
  input: "DS-CNN/conv_ds_2/pj_conv/batch_norm/Const"
  input: "DS-CNN/conv_ds_2/pj_conv/batch_norm/beta/read"
  input: "DS-CNN/conv_ds_2/pj_conv/batch_norm/Const_1"
  input: "DS-CNN/conv_ds_2/pj_conv/batch_norm/Const_2"
  attr {
    key: "T"
    value {
      type: DT_FLOAT
    }
  }
  attr {
    key: "data_format"
    value {
      s: "NHWC"
    }
  }
  attr {
    key: "epsilon"
    value {
      f: 0.0010000000475
    }
  }
  attr {
    key: "is_training"
    value {
      b: true
    }
  }
}
node {
  name: "DS-CNN/conv_ds_2/pj_conv/batch_norm/AssignMovingAvg/decay"
  op: "Const"
  attr {
    key: "_class"
    value {
      list {
        s: "loc:@DS-CNN/conv_ds_2/pj_conv/batch_norm/moving_mean"
      }
    }
  }
  attr {
    key: "dtype"
    value {
      type: DT_FLOAT
    }
  }
  attr {
    key: "value"
    value {
      tensor {
        dtype: DT_FLOAT
        tensor_shape {
        }
        float_val: 0.0399999991059
      }
    }
  }
}
node {
  name: "DS-CNN/conv_ds_2/pj_conv/batch_norm/AssignMovingAvg/sub"
  op: "Sub"
  input: "DS-CNN/conv_ds_2/pj_conv/batch_norm/moving_mean/read"
  input: "DS-CNN/conv_ds_2/pj_conv/batch_norm/FusedBatchNorm:1"
  attr {
    key: "T"
    value {
      type: DT_FLOAT
    }
  }
  attr {
    key: "_class"
    value {
      list {
        s: "loc:@DS-CNN/conv_ds_2/pj_conv/batch_norm/moving_mean"
      }
    }
  }
}
node {
  name: "DS-CNN/conv_ds_2/pj_conv/batch_norm/AssignMovingAvg/mul"
  op: "Mul"
  input: "DS-CNN/conv_ds_2/pj_conv/batch_norm/AssignMovingAvg/sub"
  input: "DS-CNN/conv_ds_2/pj_conv/batch_norm/AssignMovingAvg/decay"
  attr {
    key: "T"
    value {
      type: DT_FLOAT
    }
  }
  attr {
    key: "_class"
    value {
      list {
        s: "loc:@DS-CNN/conv_ds_2/pj_conv/batch_norm/moving_mean"
      }
    }
  }
}
node {
  name: "DS-CNN/conv_ds_2/pj_conv/batch_norm/AssignMovingAvg"
  op: "AssignSub"
  input: "DS-CNN/conv_ds_2/pj_conv/batch_norm/moving_mean"
  input: "DS-CNN/conv_ds_2/pj_conv/batch_norm/AssignMovingAvg/mul"
  attr {
    key: "T"
    value {
      type: DT_FLOAT
    }
  }
  attr {
    key: "_class"
    value {
      list {
        s: "loc:@DS-CNN/conv_ds_2/pj_conv/batch_norm/moving_mean"
      }
    }
  }
  attr {
    key: "use_locking"
    value {
      b: false
    }
  }
}
node {
  name: "DS-CNN/conv_ds_2/pj_conv/batch_norm/AssignMovingAvg_1/decay"
  op: "Const"
  attr {
    key: "_class"
    value {
      list {
        s: "loc:@DS-CNN/conv_ds_2/pj_conv/batch_norm/moving_variance"
      }
    }
  }
  attr {
    key: "dtype"
    value {
      type: DT_FLOAT
    }
  }
  attr {
    key: "value"
    value {
      tensor {
        dtype: DT_FLOAT
        tensor_shape {
        }
        float_val: 0.0399999991059
      }
    }
  }
}
node {
  name: "DS-CNN/conv_ds_2/pj_conv/batch_norm/AssignMovingAvg_1/sub"
  op: "Sub"
  input: "DS-CNN/conv_ds_2/pj_conv/batch_norm/moving_variance/read"
  input: "DS-CNN/conv_ds_2/pj_conv/batch_norm/FusedBatchNorm:2"
  attr {
    key: "T"
    value {
      type: DT_FLOAT
    }
  }
  attr {
    key: "_class"
    value {
      list {
        s: "loc:@DS-CNN/conv_ds_2/pj_conv/batch_norm/moving_variance"
      }
    }
  }
}
node {
  name: "DS-CNN/conv_ds_2/pj_conv/batch_norm/AssignMovingAvg_1/mul"
  op: "Mul"
  input: "DS-CNN/conv_ds_2/pj_conv/batch_norm/AssignMovingAvg_1/sub"
  input: "DS-CNN/conv_ds_2/pj_conv/batch_norm/AssignMovingAvg_1/decay"
  attr {
    key: "T"
    value {
      type: DT_FLOAT
    }
  }
  attr {
    key: "_class"
    value {
      list {
        s: "loc:@DS-CNN/conv_ds_2/pj_conv/batch_norm/moving_variance"
      }
    }
  }
}
node {
  name: "DS-CNN/conv_ds_2/pj_conv/batch_norm/AssignMovingAvg_1"
  op: "AssignSub"
  input: "DS-CNN/conv_ds_2/pj_conv/batch_norm/moving_variance"
  input: "DS-CNN/conv_ds_2/pj_conv/batch_norm/AssignMovingAvg_1/mul"
  attr {
    key: "T"
    value {
      type: DT_FLOAT
    }
  }
  attr {
    key: "_class"
    value {
      list {
        s: "loc:@DS-CNN/conv_ds_2/pj_conv/batch_norm/moving_variance"
      }
    }
  }
  attr {
    key: "use_locking"
    value {
      b: false
    }
  }
}
node {
  name: "DS-CNN/conv_ds_2/pj_conv/batch_norm/Identity"
  op: "Identity"
  input: "DS-CNN/conv_ds_2/pj_conv/batch_norm/FusedBatchNorm"
  input: "^DS-CNN/conv_ds_2/pj_conv/batch_norm/AssignMovingAvg"
  input: "^DS-CNN/conv_ds_2/pj_conv/batch_norm/AssignMovingAvg_1"
  attr {
    key: "T"
    value {
      type: DT_FLOAT
    }
  }
}
node {
  name: "DS-CNN/conv_ds_2/res_conv/weights/Initializer/random_uniform/shape"
  op: "Const"
  attr {
    key: "_class"
    value {
      list {
        s: "loc:@DS-CNN/conv_ds_2/res_conv/weights"
      }
    }
  }
  attr {
    key: "dtype"
    value {
      type: DT_INT32
    }
  }
  attr {
    key: "value"
    value {
      tensor {
        dtype: DT_INT32
        tensor_shape {
          dim {
            size: 4
          }
        }
        tensor_content: "\001\000\000\000\001\000\000\000 \000\000\000 \000\000\000"
      }
    }
  }
}
node {
  name: "DS-CNN/conv_ds_2/res_conv/weights/Initializer/random_uniform/min"
  op: "Const"
  attr {
    key: "_class"
    value {
      list {
        s: "loc:@DS-CNN/conv_ds_2/res_conv/weights"
      }
    }
  }
  attr {
    key: "dtype"
    value {
      type: DT_FLOAT
    }
  }
  attr {
    key: "value"
    value {
      tensor {
        dtype: DT_FLOAT
        tensor_shape {
        }
        float_val: -0.306186228991
      }
    }
  }
}
node {
  name: "DS-CNN/conv_ds_2/res_conv/weights/Initializer/random_uniform/max"
  op: "Const"
  attr {
    key: "_class"
    value {
      list {
        s: "loc:@DS-CNN/conv_ds_2/res_conv/weights"
      }
    }
  }
  attr {
    key: "dtype"
    value {
      type: DT_FLOAT
    }
  }
  attr {
    key: "value"
    value {
      tensor {
        dtype: DT_FLOAT
        tensor_shape {
        }
        float_val: 0.306186228991
      }
    }
  }
}
node {
  name: "DS-CNN/conv_ds_2/res_conv/weights/Initializer/random_uniform/RandomUniform"
  op: "RandomUniform"
  input: "DS-CNN/conv_ds_2/res_conv/weights/Initializer/random_uniform/shape"
  attr {
    key: "T"
    value {
      type: DT_INT32
    }
  }
  attr {
    key: "_class"
    value {
      list {
        s: "loc:@DS-CNN/conv_ds_2/res_conv/weights"
      }
    }
  }
  attr {
    key: "dtype"
    value {
      type: DT_FLOAT
    }
  }
  attr {
    key: "seed"
    value {
      i: 0
    }
  }
  attr {
    key: "seed2"
    value {
      i: 0
    }
  }
}
node {
  name: "DS-CNN/conv_ds_2/res_conv/weights/Initializer/random_uniform/sub"
  op: "Sub"
  input: "DS-CNN/conv_ds_2/res_conv/weights/Initializer/random_uniform/max"
  input: "DS-CNN/conv_ds_2/res_conv/weights/Initializer/random_uniform/min"
  attr {
    key: "T"
    value {
      type: DT_FLOAT
    }
  }
  attr {
    key: "_class"
    value {
      list {
        s: "loc:@DS-CNN/conv_ds_2/res_conv/weights"
      }
    }
  }
}
node {
  name: "DS-CNN/conv_ds_2/res_conv/weights/Initializer/random_uniform/mul"
  op: "Mul"
  input: "DS-CNN/conv_ds_2/res_conv/weights/Initializer/random_uniform/RandomUniform"
  input: "DS-CNN/conv_ds_2/res_conv/weights/Initializer/random_uniform/sub"
  attr {
    key: "T"
    value {
      type: DT_FLOAT
    }
  }
  attr {
    key: "_class"
    value {
      list {
        s: "loc:@DS-CNN/conv_ds_2/res_conv/weights"
      }
    }
  }
}
node {
  name: "DS-CNN/conv_ds_2/res_conv/weights/Initializer/random_uniform"
  op: "Add"
  input: "DS-CNN/conv_ds_2/res_conv/weights/Initializer/random_uniform/mul"
  input: "DS-CNN/conv_ds_2/res_conv/weights/Initializer/random_uniform/min"
  attr {
    key: "T"
    value {
      type: DT_FLOAT
    }
  }
  attr {
    key: "_class"
    value {
      list {
        s: "loc:@DS-CNN/conv_ds_2/res_conv/weights"
      }
    }
  }
}
node {
  name: "DS-CNN/conv_ds_2/res_conv/weights"
  op: "VariableV2"
  attr {
    key: "_class"
    value {
      list {
        s: "loc:@DS-CNN/conv_ds_2/res_conv/weights"
      }
    }
  }
  attr {
    key: "container"
    value {
      s: ""
    }
  }
  attr {
    key: "dtype"
    value {
      type: DT_FLOAT
    }
  }
  attr {
    key: "shape"
    value {
      shape {
        dim {
          size: 1
        }
        dim {
          size: 1
        }
        dim {
          size: 32
        }
        dim {
          size: 32
        }
      }
    }
  }
  attr {
    key: "shared_name"
    value {
      s: ""
    }
  }
}
node {
  name: "DS-CNN/conv_ds_2/res_conv/weights/Assign"
  op: "Assign"
  input: "DS-CNN/conv_ds_2/res_conv/weights"
  input: "DS-CNN/conv_ds_2/res_conv/weights/Initializer/random_uniform"
  attr {
    key: "T"
    value {
      type: DT_FLOAT
    }
  }
  attr {
    key: "_class"
    value {
      list {
        s: "loc:@DS-CNN/conv_ds_2/res_conv/weights"
      }
    }
  }
  attr {
    key: "use_locking"
    value {
      b: true
    }
  }
  attr {
    key: "validate_shape"
    value {
      b: true
    }
  }
}
node {
  name: "DS-CNN/conv_ds_2/res_conv/weights/read"
  op: "Identity"
  input: "DS-CNN/conv_ds_2/res_conv/weights"
  attr {
    key: "T"
    value {
      type: DT_FLOAT
    }
  }
  attr {
    key: "_class"
    value {
      list {
        s: "loc:@DS-CNN/conv_ds_2/res_conv/weights"
      }
    }
  }
}
node {
  name: "DS-CNN/conv_ds_2/res_conv/biases/Initializer/zeros"
  op: "Const"
  attr {
    key: "_class"
    value {
      list {
        s: "loc:@DS-CNN/conv_ds_2/res_conv/biases"
      }
    }
  }
  attr {
    key: "dtype"
    value {
      type: DT_FLOAT
    }
  }
  attr {
    key: "value"
    value {
      tensor {
        dtype: DT_FLOAT
        tensor_shape {
          dim {
            size: 32
          }
        }
        float_val: 0.0
      }
    }
  }
}
node {
  name: "DS-CNN/conv_ds_2/res_conv/biases"
  op: "VariableV2"
  attr {
    key: "_class"
    value {
      list {
        s: "loc:@DS-CNN/conv_ds_2/res_conv/biases"
      }
    }
  }
  attr {
    key: "container"
    value {
      s: ""
    }
  }
  attr {
    key: "dtype"
    value {
      type: DT_FLOAT
    }
  }
  attr {
    key: "shape"
    value {
      shape {
        dim {
          size: 32
        }
      }
    }
  }
  attr {
    key: "shared_name"
    value {
      s: ""
    }
  }
}
node {
  name: "DS-CNN/conv_ds_2/res_conv/biases/Assign"
  op: "Assign"
  input: "DS-CNN/conv_ds_2/res_conv/biases"
  input: "DS-CNN/conv_ds_2/res_conv/biases/Initializer/zeros"
  attr {
    key: "T"
    value {
      type: DT_FLOAT
    }
  }
  attr {
    key: "_class"
    value {
      list {
        s: "loc:@DS-CNN/conv_ds_2/res_conv/biases"
      }
    }
  }
  attr {
    key: "use_locking"
    value {
      b: true
    }
  }
  attr {
    key: "validate_shape"
    value {
      b: true
    }
  }
}
node {
  name: "DS-CNN/conv_ds_2/res_conv/biases/read"
  op: "Identity"
  input: "DS-CNN/conv_ds_2/res_conv/biases"
  attr {
    key: "T"
    value {
      type: DT_FLOAT
    }
  }
  attr {
    key: "_class"
    value {
      list {
        s: "loc:@DS-CNN/conv_ds_2/res_conv/biases"
      }
    }
  }
}
node {
  name: "DS-CNN/conv_ds_2/res_conv/dilation_rate"
  op: "Const"
  attr {
    key: "dtype"
    value {
      type: DT_INT32
    }
  }
  attr {
    key: "value"
    value {
      tensor {
        dtype: DT_INT32
        tensor_shape {
          dim {
            size: 2
          }
        }
        tensor_content: "\001\000\000\000\001\000\000\000"
      }
    }
  }
}
node {
  name: "DS-CNN/conv_ds_2/res_conv/Conv2D"
  op: "Conv2D"
  input: "DS-CNN/conv_ds_2/pj_conv/batch_norm/Identity"
  input: "DS-CNN/conv_ds_2/res_conv/weights/read"
  attr {
    key: "T"
    value {
      type: DT_FLOAT
    }
  }
  attr {
    key: "data_format"
    value {
      s: "NHWC"
    }
  }
  attr {
    key: "padding"
    value {
      s: "SAME"
    }
  }
  attr {
    key: "strides"
    value {
      list {
        i: 1
        i: 1
        i: 1
        i: 1
      }
    }
  }
  attr {
    key: "use_cudnn_on_gpu"
    value {
      b: true
    }
  }
}
node {
  name: "DS-CNN/conv_ds_2/res_conv/BiasAdd"
  op: "BiasAdd"
  input: "DS-CNN/conv_ds_2/res_conv/Conv2D"
  input: "DS-CNN/conv_ds_2/res_conv/biases/read"
  attr {
    key: "T"
    value {
      type: DT_FLOAT
    }
  }
  attr {
    key: "data_format"
    value {
      s: "NHWC"
    }
  }
}
node {
  name: "DS-CNN/conv_ds_3/exp_conv/weights/Initializer/random_uniform/shape"
  op: "Const"
  attr {
    key: "_class"
    value {
      list {
        s: "loc:@DS-CNN/conv_ds_3/exp_conv/weights"
      }
    }
  }
  attr {
    key: "dtype"
    value {
      type: DT_INT32
    }
  }
  attr {
    key: "value"
    value {
      tensor {
        dtype: DT_INT32
        tensor_shape {
          dim {
            size: 4
          }
        }
        tensor_content: "\001\000\000\000\001\000\000\000 \000\000\000\300\000\000\000"
      }
    }
  }
}
node {
  name: "DS-CNN/conv_ds_3/exp_conv/weights/Initializer/random_uniform/min"
  op: "Const"
  attr {
    key: "_class"
    value {
      list {
        s: "loc:@DS-CNN/conv_ds_3/exp_conv/weights"
      }
    }
  }
  attr {
    key: "dtype"
    value {
      type: DT_FLOAT
    }
  }
  attr {
    key: "value"
    value {
      tensor {
        dtype: DT_FLOAT
        tensor_shape {
        }
        float_val: -0.163663417101
      }
    }
  }
}
node {
  name: "DS-CNN/conv_ds_3/exp_conv/weights/Initializer/random_uniform/max"
  op: "Const"
  attr {
    key: "_class"
    value {
      list {
        s: "loc:@DS-CNN/conv_ds_3/exp_conv/weights"
      }
    }
  }
  attr {
    key: "dtype"
    value {
      type: DT_FLOAT
    }
  }
  attr {
    key: "value"
    value {
      tensor {
        dtype: DT_FLOAT
        tensor_shape {
        }
        float_val: 0.163663417101
      }
    }
  }
}
node {
…
  attr {
    key: "dtype"
    value {
      type: DT_STRING
    }
  }
  attr {
    key: "value"
    value {
      tensor {
        dtype: DT_STRING
        tensor_shape {
          dim {
            size: 1
          }
        }
        string_val: "DS-CNN/conv_ds_3/pj_conv/biases/Adam_1"
      }
    }
  }
}
node {
  name: "save/RestoreV2_112/shape_and_slices"
  op: "Const"
  attr {
    key: "dtype"
    value {
      type: DT_STRING
    }
  }
  attr {
    key: "value"
    value {
      tensor {
        dtype: DT_STRING
        tensor_shape {
          dim {
            size: 1
          }
        }
        string_val: ""
      }
    }
  }
}
node {
  name: "save/RestoreV2_112"
  op: "RestoreV2"
  input: "save/Const"
  input: "save/RestoreV2_112/tensor_names"
  input: "save/RestoreV2_112/shape_and_slices"
  attr {
    key: "dtypes"
    value {
      list {
        type: DT_FLOAT
      }
    }
  }
}
node {
  name: "save/Assign_112"
  op: "Assign"
  input: "DS-CNN/conv_ds_3/pj_conv/biases/Adam_1"
  input: "save/RestoreV2_112"
  attr {
    key: "T"
    value {
      type: DT_FLOAT
    }
  }
  attr {
    key: "_class"
    value {
      list {
        s: "loc:@DS-CNN/conv_ds_3/pj_conv/biases"
      }
    }
  }
  attr {
    key: "use_locking"
    value {
      b: true
    }
  }
  attr {
    key: "validate_shape"
    value {
      b: true
    }
  }
}
node {
  name: "save/RestoreV2_113/tensor_names"
  op: "Const"
  attr {
    key: "dtype"
    value {
      type: DT_STRING
    }
  }
  attr {
    key: "value"
    value {
      tensor {
        dtype: DT_STRING
        tensor_shape {
          dim {
            size: 1
          }
        }
        string_val: "DS-CNN/conv_ds_3/pj_conv/weights"
      }
    }
  }
}
node {
  name: "save/RestoreV2_113/shape_and_slices"
  op: "Const"
  attr {
    key: "dtype"
    value {
      type: DT_STRING
    }
  }
  attr {
    key: "value"
    value {
      tensor {
        dtype: DT_STRING
        tensor_shape {
          dim {
            size: 1
          }
        }
        string_val: ""
      }
    }
  }
}
node {
  name: "save/RestoreV2_113"
  op: "RestoreV2"
  input: "save/Const"
  input: "save/RestoreV2_113/tensor_names"
  input: "save/RestoreV2_113/shape_and_slices"
  attr {
    key: "dtypes"
    value {
      list {
        type: DT_FLOAT
      }
    }
  }
}
node {
  name: "save/Assign_113"
  op: "Assign"
  input: "DS-CNN/conv_ds_3/pj_conv/weights"
  input: "save/RestoreV2_113"
  attr {
    key: "T"
    value {
      type: DT_FLOAT
    }
  }
  attr {
    key: "_class"
    value {
      list {
        s: "loc:@DS-CNN/conv_ds_3/pj_conv/weights"
      }
    }
  }
  attr {
    key: "use_locking"
    value {
      b: true
    }
  }
  attr {
    key: "validate_shape"
    value {
      b: true
    }
  }
}
node {
  name: "save/RestoreV2_114/tensor_names"
  op: "Const"
  attr {
    key: "dtype"
    value {
      type: DT_STRING
    }
  }
  attr {
    key: "value"
    value {
      tensor {
        dtype: DT_STRING
        tensor_shape {
          dim {
            size: 1
          }
        }
        string_val: "DS-CNN/conv_ds_3/pj_conv/weights/Adam"
      }
    }
  }
}
node {
  name: "save/RestoreV2_114/shape_and_slices"
  op: "Const"
  attr {
    key: "dtype"
    value {
      type: DT_STRING
    }
  }
  attr {
    key: "value"
    value {
      tensor {
        dtype: DT_STRING
        tensor_shape {
          dim {
            size: 1
          }
        }
        string_val: ""
      }
    }
  }
}
node {
  name: "save/RestoreV2_114"
  op: "RestoreV2"
  input: "save/Const"
  input: "save/RestoreV2_114/tensor_names"
  input: "save/RestoreV2_114/shape_and_slices"
  attr {
    key: "dtypes"
    value {
      list {
        type: DT_FLOAT
      }
    }
  }
}
node {
  name: "save/Assign_114"
  op: "Assign"
  input: "DS-CNN/conv_ds_3/pj_conv/weights/Adam"
  input: "save/RestoreV2_114"
  attr {
    key: "T"
    value {
      type: DT_FLOAT
    }
  }
  attr {
    key: "_class"
    value {
      list {
        s: "loc:@DS-CNN/conv_ds_3/pj_conv/weights"
      }
    }
  }
  attr {
    key: "use_locking"
    value {
      b: true
    }
  }
  attr {
    key: "validate_shape"
    value {
      b: true
    }
  }
}
node {
  name: "save/RestoreV2_115/tensor_names"
  op: "Const"
  attr {
    key: "dtype"
    value {
      type: DT_STRING
    }
  }
  attr {
    key: "value"
    value {
      tensor {
        dtype: DT_STRING
        tensor_shape {
          dim {
            size: 1
          }
        }
        string_val: "DS-CNN/conv_ds_3/pj_conv/weights/Adam_1"
      }
    }
  }
}
node {
  name: "save/RestoreV2_115/shape_and_slices"
  op: "Const"
  attr {
    key: "dtype"
    value {
      type: DT_STRING
    }
  }
  attr {
    key: "value"
    value {
      tensor {
        dtype: DT_STRING
        tensor_shape {
          dim {
            size: 1
          }
        }
        string_val: ""
      }
    }
  }
}
node {
  name: "save/RestoreV2_115"
  op: "RestoreV2"
  input: "save/Const"
  input: "save/RestoreV2_115/tensor_names"
  input: "save/RestoreV2_115/shape_and_slices"
  attr {
    key: "dtypes"
    value {
      list {
        type: DT_FLOAT
      }
    }
  }
}
node {
  name: "save/Assign_115"
  op: "Assign"
  input: "DS-CNN/conv_ds_3/pj_conv/weights/Adam_1"
  input: "save/RestoreV2_115"
  attr {
    key: "T"
    value {
      type: DT_FLOAT
    }
  }
  attr {
    key: "_class"
    value {
      list {
        s: "loc:@DS-CNN/conv_ds_3/pj_conv/weights"
      }
    }
  }
  attr {
    key: "use_locking"
    value {
      b: true
    }
  }
  attr {
    key: "validate_shape"
    value {
      b: true
    }
  }
}
node {
  name: "save/RestoreV2_116/tensor_names"
  op: "Const"
  attr {
    key: "dtype"
    value {
      type: DT_STRING
    }
  }
  attr {
    key: "value"
    value {
      tensor {
        dtype: DT_STRING
        tensor_shape {
          dim {
            size: 1
          }
        }
        string_val: "DS-CNN/conv_ds_3/res_conv/biases"
      }
    }
  }
}
node {
  name: "save/RestoreV2_116/shape_and_slices"
  op: "Const"
  attr {
    key: "dtype"
    value {
      type: DT_STRING
    }
  }
  attr {
    key: "value"
    value {
      tensor {
        dtype: DT_STRING
        tensor_shape {
          dim {
            size: 1
          }
        }
        string_val: ""
      }
    }
  }
}
node {
  name: "save/RestoreV2_116"
  op: "RestoreV2"
  input: "save/Const"
  input: "save/RestoreV2_116/tensor_names"
  input: "save/RestoreV2_116/shape_and_slices"
  attr {
    key: "dtypes"
    value {
      list {
        type: DT_FLOAT
      }
    }
  }
}
node {
  name: "save/Assign_116"
  op: "Assign"
  input: "DS-CNN/conv_ds_3/res_conv/biases"
  input: "save/RestoreV2_116"
  attr {
    key: "T"
    value {
      type: DT_FLOAT
    }
  }
  attr {
    key: "_class"
    value {
      list {
        s: "loc:@DS-CNN/conv_ds_3/res_conv/biases"
      }
    }
  }
  attr {
    key: "use_locking"
    value {
      b: true
    }
  }
  attr {
    key: "validate_shape"
    value {
      b: true
    }
  }
}
node {
  name: "save/RestoreV2_117/tensor_names"
  op: "Const"
  attr {
    key: "dtype"
    value {
      type: DT_STRING
    }
  }
  attr {
    key: "value"
    value {
      tensor {
        dtype: DT_STRING
        tensor_shape {
          dim {
            size: 1
          }
        }
        string_val: "DS-CNN/conv_ds_3/res_conv/biases/Adam"
      }
    }
  }
}
node {
  name: "save/RestoreV2_117/shape_and_slices"
  op: "Const"
  attr {
    key: "dtype"
    value {
      type: DT_STRING
    }
  }
  attr {
    key: "value"
    value {
      tensor {
        dtype: DT_STRING
        tensor_shape {
          dim {
            size: 1
          }
        }
        string_val: ""
      }
    }
  }
}
node {
  name: "save/RestoreV2_117"
  op: "RestoreV2"
  input: "save/Const"
  input: "save/RestoreV2_117/tensor_names"
  input: "save/RestoreV2_117/shape_and_slices"
  attr {
    key: "dtypes"
    value {
      list {
        type: DT_FLOAT
      }
    }
  }
}
node {
  name: "save/Assign_117"
  op: "Assign"
  input: "DS-CNN/conv_ds_3/res_conv/biases/Adam"
  input: "save/RestoreV2_117"
  attr {
    key: "T"
    value {
      type: DT_FLOAT
    }
  }
  attr {
    key: "_class"
    value {
      list {
        s: "loc:@DS-CNN/conv_ds_3/res_conv/biases"
      }
    }
  }
  attr {
    key: "use_locking"
    value {
      b: true
    }
  }
  attr {
    key: "validate_shape"
    value {
      b: true
    }
  }
}
node {
  name: "save/RestoreV2_118/tensor_names"
  op: "Const"
  attr {
    key: "dtype"
    value {
      type: DT_STRING
    }
  }
  attr {
    key: "value"
    value {
      tensor {
        dtype: DT_STRING
        tensor_shape {
          dim {
            size: 1
          }
        }
        string_val: "DS-CNN/conv_ds_3/res_conv/biases/Adam_1"
      }
    }
  }
}
node {
  name: "save/RestoreV2_118/shape_and_slices"
  op: "Const"
  attr {
    key: "dtype"
    value {
      type: DT_STRING
    }
  }
  attr {
    key: "value"
    value {
      tensor {
        dtype: DT_STRING
        tensor_shape {
          dim {
            size: 1
          }
        }
        string_val: ""
      }
    }
  }
}
node {
  name: "save/RestoreV2_118"
  op: "RestoreV2"
  input: "save/Const"
  input: "save/RestoreV2_118/tensor_names"
  input: "save/RestoreV2_118/shape_and_slices"
  attr {
    key: "dtypes"
    value {
      list {
        type: DT_FLOAT
      }
    }
  }
}
node {
  name: "save/Assign_118"
  op: "Assign"
  input: "DS-CNN/conv_ds_3/res_conv/biases/Adam_1"
  input: "save/RestoreV2_118"
  attr {
    key: "T"
    value {
      type: DT_FLOAT
    }
  }
  attr {
    key: "_class"
    value {
      list {
        s: "loc:@DS-CNN/conv_ds_3/res_conv/biases"
      }
    }
  }
  attr {
    key: "use_locking"
    value {
      b: true
    }
  }
  attr {
    key: "validate_shape"
    value {
      b: true
    }
  }
}
node {
  name: "save/RestoreV2_119/tensor_names"
  op: "Const"
  attr {
    key: "dtype"
    value {
      type: DT_STRING
    }
  }
  attr {
    key: "value"
    value {
      tensor {
        dtype: DT_STRING
        tensor_shape {
          dim {
            size: 1
          }
        }
        string_val: "DS-CNN/conv_ds_3/res_conv/weights"
      }
    }
  }
}
node {
  name: "save/RestoreV2_119/shape_and_slices"
  op: "Const"
  attr {
    key: "dtype"
    value {
      type: DT_STRING
    }
  }
  attr {
    key: "value"
    value {
      tensor {
        dtype: DT_STRING
        tensor_shape {
          dim {
            size: 1
          }
        }
        string_val: ""
      }
    }
  }
}
node {
  name: "save/RestoreV2_119"
  op: "RestoreV2"
  input: "save/Const"
  input: "save/RestoreV2_119/tensor_names"
  input: "save/RestoreV2_119/shape_and_slices"
  attr {
    key: "dtypes"
    value {
      list {
        type: DT_FLOAT
      }
    }
  }
}
node {
  name: "save/Assign_119"
  op: "Assign"
  input: "DS-CNN/conv_ds_3/res_conv/weights"
  input: "save/RestoreV2_119"
  attr {
    key: "T"
    value {
      type: DT_FLOAT
    }
  }
  attr {
    key: "_class"
    value {
      list {
        s: "loc:@DS-CNN/conv_ds_3/res_conv/weights"
      }
    }
  }
  attr {
    key: "use_locking"
    value {
      b: true
    }
  }
  attr {
    key: "validate_shape"
    value {
      b: true
    }
  }
}
node {
  name: "save/RestoreV2_120/tensor_names"
  op: "Const"
  attr {
    key: "dtype"
    value {
      type: DT_STRING
    }
  }
  attr {
    key: "value"
    value {
      tensor {
        dtype: DT_STRING
        tensor_shape {
          dim {
            size: 1
          }
        }
        string_val: "DS-CNN/conv_ds_3/res_conv/weights/Adam"
      }
    }
  }
}
node {
  name: "save/RestoreV2_120/shape_and_slices"
  op: "Const"
  attr {
    key: "dtype"
    value {
      type: DT_STRING
    }
  }
  attr {
    key: "value"
    value {
      tensor {
        dtype: DT_STRING
        tensor_shape {
          dim {
            size: 1
          }
        }
        string_val: ""
      }
    }
  }
}
node {
  name: "save/RestoreV2_120"
  op: "RestoreV2"
  input: "save/Const"
  input: "save/RestoreV2_120/tensor_names"
  input: "save/RestoreV2_120/shape_and_slices"
  attr {
    key: "dtypes"
    value {
      list {
        type: DT_FLOAT
      }
    }
  }
}
node {
  name: "save/Assign_120"
  op: "Assign"
  input: "DS-CNN/conv_ds_3/res_conv/weights/Adam"
  input: "save/RestoreV2_120"
  attr {
    key: "T"
    value {
      type: DT_FLOAT
    }
  }
  attr {
    key: "_class"
    value {
      list {
        s: "loc:@DS-CNN/conv_ds_3/res_conv/weights"
      }
    }
  }
  attr {
    key: "use_locking"
    value {
      b: true
    }
  }
  attr {
    key: "validate_shape"
    value {
      b: true
    }
  }
}
node {
  name: "save/RestoreV2_121/tensor_names"
  op: "Const"
  attr {
    key: "dtype"
    value {
      type: DT_STRING
    }
  }
  attr {
    key: "value"
    value {
      tensor {
        dtype: DT_STRING
        tensor_shape {
          dim {
            size: 1
          }
        }
        string_val: "DS-CNN/conv_ds_3/res_conv/weights/Adam_1"
      }
    }
  }
}
node {
  name: "save/RestoreV2_121/shape_and_slices"
  op: "Const"
  attr {
    key: "dtype"
    value {
      type: DT_STRING
    }
  }
  attr {
    key: "value"
    value {
      tensor {
        dtype: DT_STRING
        tensor_shape {
          dim {
            size: 1
          }
        }
        string_val: ""
      }
    }
  }
}
node {
  name: "save/RestoreV2_121"
  op: "RestoreV2"
  input: "save/Const"
  input: "save/RestoreV2_121/tensor_names"
  input: "save/RestoreV2_121/shape_and_slices"
  attr {
    key: "dtypes"
    value {
      list {
        type: DT_FLOAT
      }
    }
  }
}
node {
  name: "save/Assign_121"
  op: "Assign"
  input: "DS-CNN/conv_ds_3/res_conv/weights/Adam_1"
  input: "save/RestoreV2_121"
  attr {
    key: "T"
    value {
      type: DT_FLOAT
    }
  }
  attr {
    key: "_class"
    value {
      list {
        s: "loc:@DS-CNN/conv_ds_3/res_conv/weights"
      }
    }
  }
  attr {
    key: "use_locking"
    value {
      b: true
    }
  }
  attr {
    key: "validate_shape"
    value {
      b: true
    }
  }
}
node {
  name: "save/RestoreV2_122/tensor_names"
  op: "Const"
  attr {
    key: "dtype"
    value {
      type: DT_STRING
    }
  }
  attr {
    key: "value"
    value {
      tensor {
        dtype: DT_STRING
        tensor_shape {
          dim {
            size: 1
          }
        }
        string_val: "DS-CNN/fc1/biases"
      }
    }
  }
}
node {
  name: "save/RestoreV2_122/shape_and_slices"
  op: "Const"
  attr {
    key: "dtype"
    value {
      type: DT_STRING
    }
  }
  attr {
    key: "value"
    value {
      tensor {
        dtype: DT_STRING
        tensor_shape {
          dim {
            size: 1
          }
        }
        string_val: ""
      }
    }
  }
}
node {
  name: "save/RestoreV2_122"
  op: "RestoreV2"
  input: "save/Const"
  input: "save/RestoreV2_122/tensor_names"
  input: "save/RestoreV2_122/shape_and_slices"
  attr {
    key: "dtypes"
    value {
      list {
        type: DT_FLOAT
      }
    }
  }
}
node {
  name: "save/Assign_122"
  op: "Assign"
  input: "DS-CNN/fc1/biases"
  input: "save/RestoreV2_122"
  attr {
    key: "T"
    value {
      type: DT_FLOAT
    }
  }
  attr {
    key: "_class"
    value {
      list {
        s: "loc:@DS-CNN/fc1/biases"
      }
    }
  }
  attr {
    key: "use_locking"
    value {
      b: true
    }
  }
  attr {
    key: "validate_shape"
    value {
      b: true
    }
  }
}
node {
  name: "save/RestoreV2_123/tensor_names"
  op: "Const"
  attr {
    key: "dtype"
    value {
      type: DT_STRING
    }
  }
  attr {
    key: "value"
    value {
      tensor {
        dtype: DT_STRING
        tensor_shape {
          dim {
            size: 1
          }
        }
        string_val: "DS-CNN/fc1/biases/Adam"
      }
    }
  }
}
node {
  name: "save/RestoreV2_123/shape_and_slices"
  op: "Const"
  attr {
    key: "dtype"
    value {
      type: DT_STRING
    }
  }
  attr {
    key: "value"
    value {
      tensor {
        dtype: DT_STRING
        tensor_shape {
          dim {
            size: 1
          }
        }
        string_val: ""
      }
    }
  }
}
node {
  name: "save/RestoreV2_123"
  op: "RestoreV2"
  input: "save/Const"
  input: "save/RestoreV2_123/tensor_names"
  input: "save/RestoreV2_123/shape_and_slices"
  attr {
    key: "dtypes"
    value {
      list {
        type: DT_FLOAT
      }
    }
  }
}
node {
  name: "save/Assign_123"
  op: "Assign"
  input: "DS-CNN/fc1/biases/Adam"
  input: "save/RestoreV2_123"
  attr {
    key: "T"
    value {
      type: DT_FLOAT
    }
  }
  attr {
    key: "_class"
    value {
      list {
        s: "loc:@DS-CNN/fc1/biases"
      }
    }
  }
  attr {
    key: "use_locking"
    value {
      b: true
    }
  }
  attr {
    key: "validate_shape"
    value {
      b: true
    }
  }
}
node {
  name: "save/RestoreV2_124/tensor_names"
  op: "Const"
  attr {
    key: "dtype"
    value {
      type: DT_STRING
    }
  }
  attr {
    key: "value"
    value {
      tensor {
        dtype: DT_STRING
        tensor_shape {
          dim {
            size: 1
          }
        }
        string_val: "DS-CNN/fc1/biases/Adam_1"
      }
    }
  }
}
node {
  name: "save/RestoreV2_124/shape_and_slices"
  op: "Const"
  attr {
    key: "dtype"
    value {
      type: DT_STRING
    }
  }
  attr {
    key: "value"
    value {
      tensor {
        dtype: DT_STRING
        tensor_shape {
          dim {
            size: 1
          }
        }
        string_val: ""
      }
    }
  }
}
node {
  name: "save/RestoreV2_124"
  op: "RestoreV2"
  input: "save/Const"
  input: "save/RestoreV2_124/tensor_names"
  input: "save/RestoreV2_124/shape_and_slices"
  attr {
    key: "dtypes"
    value {
      list {
        type: DT_FLOAT
      }
    }
  }
}
node {
  name: "save/Assign_124"
  op: "Assign"
  input: "DS-CNN/fc1/biases/Adam_1"
  input: "save/RestoreV2_124"
  attr {
    key: "T"
    value {
      type: DT_FLOAT
    }
  }
  attr {
    key: "_class"
    value {
      list {
        s: "loc:@DS-CNN/fc1/biases"
      }
    }
  }
  attr {
    key: "use_locking"
    value {
      b: true
    }
  }
  attr {
    key: "validate_shape"
    value {
      b: true
    }
  }
}
node {
  name: "save/RestoreV2_125/tensor_names"
  op: "Const"
  attr {
    key: "dtype"
    value {
      type: DT_STRING
    }
  }
  attr {
    key: "value"
    value {
      tensor {
        dtype: DT_STRING
        tensor_shape {
          dim {
            size: 1
          }
        }
        string_val: "DS-CNN/fc1/weights"
      }
    }
  }
}
node {
  name: "save/RestoreV2_125/shape_and_slices"
  op: "Const"
  attr {
    key: "dtype"
    value {
      type: DT_STRING
    }
  }
  attr {
    key: "value"
    value {
      tensor {
        dtype: DT_STRING
        tensor_shape {
          dim {
            size: 1
          }
        }
        string_val: ""
      }
    }
  }
}
node {
  name: "save/RestoreV2_125"
  op: "RestoreV2"
  input: "save/Const"
  input: "save/RestoreV2_125/tensor_names"
  input: "save/RestoreV2_125/shape_and_slices"
  attr {
    key: "dtypes"
    value {
      list {
        type: DT_FLOAT
      }
    }
  }
}
node {
  name: "save/Assign_125"
  op: "Assign"
  input: "DS-CNN/fc1/weights"
  input: "save/RestoreV2_125"
  attr {
    key: "T"
    value {
      type: DT_FLOAT
    }
  }
  attr {
    key: "_class"
    value {
      list {
        s: "loc:@DS-CNN/fc1/weights"
      }
    }
  }
  attr {
    key: "use_locking"
    value {
      b: true
    }
  }
  attr {
    key: "validate_shape"
    value {
      b: true
    }
  }
}
node {
  name: "save/RestoreV2_126/tensor_names"
  op: "Const"
  attr {
    key: "dtype"
    value {
      type: DT_STRING
    }
  }
  attr {
    key: "value"
    value {
      tensor {
        dtype: DT_STRING
        tensor_shape {
          dim {
            size: 1
          }
        }
        string_val: "DS-CNN/fc1/weights/Adam"
      }
    }
  }
}
node {
  name: "save/RestoreV2_126/shape_and_slices"
  op: "Const"
  attr {
    key: "dtype"
    value {
      type: DT_STRING
    }
  }
  attr {
    key: "value"
    value {
      tensor {
        dtype: DT_STRING
        tensor_shape {
          dim {
            size: 1
          }
        }
        string_val: ""
      }
    }
  }
}
node {
  name: "save/RestoreV2_126"
  op: "RestoreV2"
  input: "save/Const"
  input: "save/RestoreV2_126/tensor_names"
  input: "save/RestoreV2_126/shape_and_slices"
  attr {
    key: "dtypes"
    value {
      list {
        type: DT_FLOAT
      }
    }
  }
}
node {
  name: "save/Assign_126"
  op: "Assign"
  input: "DS-CNN/fc1/weights/Adam"
  input: "save/RestoreV2_126"
  attr {
    key: "T"
    value {
      type: DT_FLOAT
    }
  }
  attr {
    key: "_class"
    value {
      list {
        s: "loc:@DS-CNN/fc1/weights"
      }
    }
  }
  attr {
    key: "use_locking"
    value {
      b: true
    }
  }
  attr {
    key: "validate_shape"
    value {
      b: true
    }
  }
}
node {
  name: "save/RestoreV2_127/tensor_names"
  op: "Const"
  attr {
    key: "dtype"
    value {
      type: DT_STRING
    }
  }
  attr {
    key: "value"
    value {
      tensor {
        dtype: DT_STRING
        tensor_shape {
          dim {
            size: 1
          }
        }
        string_val: "DS-CNN/fc1/weights/Adam_1"
      }
    }
  }
}
node {
  name: "save/RestoreV2_127/shape_and_slices"
  op: "Const"
  attr {
    key: "dtype"
    value {
      type: DT_STRING
    }
  }
  attr {
    key: "value"
    value {
      tensor {
        dtype: DT_STRING
        tensor_shape {
          dim {
            size: 1
          }
        }
        string_val: ""
      }
    }
  }
}
node {
  name: "save/RestoreV2_127"
  op: "RestoreV2"
  input: "save/Const"
  input: "save/RestoreV2_127/tensor_names"
  input: "save/RestoreV2_127/shape_and_slices"
  attr {
    key: "dtypes"
    value {
      list {
        type: DT_FLOAT
      }
    }
  }
}
node {
  name: "save/Assign_127"
  op: "Assign"
  input: "DS-CNN/fc1/weights/Adam_1"
  input: "save/RestoreV2_127"
  attr {
    key: "T"
    value {
      type: DT_FLOAT
    }
  }
  attr {
    key: "_class"
    value {
      list {
        s: "loc:@DS-CNN/fc1/weights"
      }
    }
  }
  attr {
    key: "use_locking"
    value {
      b: true
    }
  }
  attr {
    key: "validate_shape"
    value {
      b: true
    }
  }
}
node {
  name: "save/RestoreV2_128/tensor_names"
  op: "Const"
  attr {
    key: "dtype"
    value {
      type: DT_STRING
    }
  }
  attr {
    key: "value"
    value {
      tensor {
        dtype: DT_STRING
        tensor_shape {
          dim {
            size: 1
          }
        }
        string_val: "global_step"
      }
    }
  }
}
node {
  name: "save/RestoreV2_128/shape_and_slices"
  op: "Const"
  attr {
    key: "dtype"
    value {
      type: DT_STRING
    }
  }
  attr {
    key: "value"
    value {
      tensor {
        dtype: DT_STRING
        tensor_shape {
          dim {
            size: 1
          }
        }
        string_val: ""
      }
    }
  }
}
node {
  name: "save/RestoreV2_128"
  op: "RestoreV2"
  input: "save/Const"
  input: "save/RestoreV2_128/tensor_names"
  input: "save/RestoreV2_128/shape_and_slices"
  attr {
    key: "dtypes"
    value {
      list {
        type: DT_INT64
      }
    }
  }
}
node {
  name: "save/Assign_128"
  op: "Assign"
  input: "global_step"
  input: "save/RestoreV2_128"
  attr {
    key: "T"
    value {
      type: DT_INT64
    }
  }
  attr {
    key: "_class"
    value {
      list {
        s: "loc:@global_step"
      }
    }
  }
  attr {
    key: "use_locking"
    value {
      b: true
    }
  }
  attr {
    key: "validate_shape"
    value {
      b: true
    }
  }
}
node {
  name: "save/RestoreV2_129/tensor_names"
  op: "Const"
  attr {
    key: "dtype"
    value {
      type: DT_STRING
    }
  }
  attr {
    key: "value"
    value {
      tensor {
        dtype: DT_STRING
        tensor_shape {
          dim {
            size: 1
          }
        }
        string_val: "train/beta1_power"
      }
    }
  }
}
node {
  name: "save/RestoreV2_129/shape_and_slices"
  op: "Const"
  attr {
    key: "dtype"
    value {
      type: DT_STRING
    }
  }
  attr {
    key: "value"
    value {
      tensor {
        dtype: DT_STRING
        tensor_shape {
          dim {
            size: 1
          }
        }
        string_val: ""
      }
    }
  }
}
node {
  name: "save/RestoreV2_129"
  op: "RestoreV2"
  input: "save/Const"
  input: "save/RestoreV2_129/tensor_names"
  input: "save/RestoreV2_129/shape_and_slices"
  attr {
    key: "dtypes"
    value {
      list {
        type: DT_FLOAT
      }
    }
  }
}
node {
  name: "save/Assign_129"
  op: "Assign"
  input: "train/beta1_power"
  input: "save/RestoreV2_129"
  attr {
    key: "T"
    value {
      type: DT_FLOAT
    }
  }
  attr {
    key: "_class"
    value {
      list {
        s: "loc:@DS-CNN/conv_1/batch_norm/beta"
      }
    }
  }
  attr {
    key: "use_locking"
    value {
      b: true
    }
  }
  attr {
    key: "validate_shape"
    value {
      b: true
    }
  }
}
node {
  name: "save/RestoreV2_130/tensor_names"
  op: "Const"
  attr {
    key: "dtype"
    value {
      type: DT_STRING
    }
  }
  attr {
    key: "value"
    value {
      tensor {
        dtype: DT_STRING
        tensor_shape {
          dim {
            size: 1
          }
        }
        string_val: "train/beta2_power"
      }
    }
  }
}
node {
  name: "save/RestoreV2_130/shape_and_slices"
  op: "Const"
  attr {
    key: "dtype"
    value {
      type: DT_STRING
    }
  }
  attr {
    key: "value"
    value {
      tensor {
        dtype: DT_STRING
        tensor_shape {
          dim {
            size: 1
          }
        }
        string_val: ""
      }
    }
  }
}
node {
  name: "save/RestoreV2_130"
  op: "RestoreV2"
  input: "save/Const"
  input: "save/RestoreV2_130/tensor_names"
  input: "save/RestoreV2_130/shape_and_slices"
  attr {
    key: "dtypes"
    value {
      list {
        type: DT_FLOAT
      }
    }
  }
}
node {
  name: "save/Assign_130"
  op: "Assign"
  input: "train/beta2_power"
  input: "save/RestoreV2_130"
  attr {
    key: "T"
    value {
      type: DT_FLOAT
    }
  }
  attr {
    key: "_class"
    value {
      list {
        s: "loc:@DS-CNN/conv_1/batch_norm/beta"
      }
    }
  }
  attr {
    key: "use_locking"
    value {
      b: true
    }
  }
  attr {
    key: "validate_shape"
    value {
      b: true
    }
  }
}
node {
  name: "save/restore_all"
  op: "NoOp"
  input: "^save/Assign"
  input: "^save/Assign_1"
  input: "^save/Assign_2"
  input: "^save/Assign_3"
  input: "^save/Assign_4"
  input: "^save/Assign_5"
  input: "^save/Assign_6"
  input: "^save/Assign_7"
  input: "^save/Assign_8"
  input: "^save/Assign_9"
  input: "^save/Assign_10"
  input: "^save/Assign_11"
  input: "^save/Assign_12"
  input: "^save/Assign_13"
  input: "^save/Assign_14"
  input: "^save/Assign_15"
  input: "^save/Assign_16"
  input: "^save/Assign_17"
  input: "^save/Assign_18"
  input: "^save/Assign_19"
  input: "^save/Assign_20"
  input: "^save/Assign_21"
  input: "^save/Assign_22"
  input: "^save/Assign_23"
  input: "^save/Assign_24"
  input: "^save/Assign_25"
  input: "^save/Assign_26"
  input: "^save/Assign_27"
  input: "^save/Assign_28"
  input: "^save/Assign_29"
  input: "^save/Assign_30"
  input: "^save/Assign_31"
  input: "^save/Assign_32"
  input: "^save/Assign_33"
  input: "^save/Assign_34"
  input: "^save/Assign_35"
  input: "^save/Assign_36"
  input: "^save/Assign_37"
  input: "^save/Assign_38"
  input: "^save/Assign_39"
  input: "^save/Assign_40"
  input: "^save/Assign_41"
  input: "^save/Assign_42"
  input: "^save/Assign_43"
  input: "^save/Assign_44"
  input: "^save/Assign_45"
  input: "^save/Assign_46"
  input: "^save/Assign_47"
  input: "^save/Assign_48"
  input: "^save/Assign_49"
  input: "^save/Assign_50"
  input: "^save/Assign_51"
  input: "^save/Assign_52"
  input: "^save/Assign_53"
  input: "^save/Assign_54"
  input: "^save/Assign_55"
  input: "^save/Assign_56"
  input: "^save/Assign_57"
  input: "^save/Assign_58"
  input: "^save/Assign_59"
  input: "^save/Assign_60"
  input: "^save/Assign_61"
  input: "^save/Assign_62"
  input: "^save/Assign_63"
  input: "^save/Assign_64"
  input: "^save/Assign_65"
  input: "^save/Assign_66"
  input: "^save/Assign_67"
  input: "^save/Assign_68"
  input: "^save/Assign_69"
  input: "^save/Assign_70"
  input: "^save/Assign_71"
  input: "^save/Assign_72"
  input: "^save/Assign_73"
  input: "^save/Assign_74"
  input: "^save/Assign_75"
  input: "^save/Assign_76"
  input: "^save/Assign_77"
  input: "^save/Assign_78"
  input: "^save/Assign_79"
  input: "^save/Assign_80"
  input: "^save/Assign_81"
  input: "^save/Assign_82"
  input: "^save/Assign_83"
  input: "^save/Assign_84"
  input: "^save/Assign_85"
  input: "^save/Assign_86"
  input: "^save/Assign_87"
  input: "^save/Assign_88"
  input: "^save/Assign_89"
  input: "^save/Assign_90"
  input: "^save/Assign_91"
  input: "^save/Assign_92"
  input: "^save/Assign_93"
  input: "^save/Assign_94"
  input: "^save/Assign_95"
  input: "^save/Assign_96"
  input: "^save/Assign_97"
  input: "^save/Assign_98"
  input: "^save/Assign_99"
  input: "^save/Assign_100"
  input: "^save/Assign_101"
  input: "^save/Assign_102"
  input: "^save/Assign_103"
  input: "^save/Assign_104"
  input: "^save/Assign_105"
  input: "^save/Assign_106"
  input: "^save/Assign_107"
  input: "^save/Assign_108"
  input: "^save/Assign_109"
  input: "^save/Assign_110"
  input: "^save/Assign_111"
  input: "^save/Assign_112"
  input: "^save/Assign_113"
  input: "^save/Assign_114"
  input: "^save/Assign_115"
  input: "^save/Assign_116"
  input: "^save/Assign_117"
  input: "^save/Assign_118"
  input: "^save/Assign_119"
  input: "^save/Assign_120"
  input: "^save/Assign_121"
  input: "^save/Assign_122"
  input: "^save/Assign_123"
  input: "^save/Assign_124"
  input: "^save/Assign_125"
  input: "^save/Assign_126"
  input: "^save/Assign_127"
  input: "^save/Assign_128"
  input: "^save/Assign_129"
  input: "^save/Assign_130"
}
node {
  name: "Merge/MergeSummary"
  op: "MergeSummary"
  input: "cross_entropy_1"
  input: "accuracy"
  attr {
    key: "N"
    value {
      i: 2
    }
  }
}
node {
  name: "init"
  op: "NoOp"
  input: "^DS-CNN/conv_1/weights/Assign"
  input: "^DS-CNN/conv_1/biases/Assign"
  input: "^DS-CNN/conv_1/batch_norm/beta/Assign"
  input: "^DS-CNN/conv_1/batch_norm/moving_mean/Assign"
  input: "^DS-CNN/conv_1/batch_norm/moving_variance/Assign"
  input: "^DS-CNN/conv_ds_1/exp_conv/weights/Assign"
  input: "^DS-CNN/conv_ds_1/exp_conv/biases/Assign"
  input: "^DS-CNN/conv_ds_1/exp_conv/batch_norm/beta/Assign"
  input: "^DS-CNN/conv_ds_1/exp_conv/batch_norm/moving_mean/Assign"
  input: "^DS-CNN/conv_ds_1/exp_conv/batch_norm/moving_variance/Assign"
  input: "^DS-CNN/conv_ds_1/dw_conv/depthwise_weights/Assign"
  input: "^DS-CNN/conv_ds_1/dw_conv/biases/Assign"
  input: "^DS-CNN/conv_ds_1/dw_conv/batch_norm/beta/Assign"
  input: "^DS-CNN/conv_ds_1/dw_conv/batch_norm/moving_mean/Assign"
  input: "^DS-CNN/conv_ds_1/dw_conv/batch_norm/moving_variance/Assign"
  input: "^DS-CNN/conv_ds_1/pj_conv/weights/Assign"
  input: "^DS-CNN/conv_ds_1/pj_conv/biases/Assign"
  input: "^DS-CNN/conv_ds_1/pj_conv/batch_norm/beta/Assign"
  input: "^DS-CNN/conv_ds_1/pj_conv/batch_norm/moving_mean/Assign"
  input: "^DS-CNN/conv_ds_1/pj_conv/batch_norm/moving_variance/Assign"
  input: "^DS-CNN/conv_ds_2/exp_conv/weights/Assign"
  input: "^DS-CNN/conv_ds_2/exp_conv/biases/Assign"
  input: "^DS-CNN/conv_ds_2/exp_conv/batch_norm/beta/Assign"
  input: "^DS-CNN/conv_ds_2/exp_conv/batch_norm/moving_mean/Assign"
  input: "^DS-CNN/conv_ds_2/exp_conv/batch_norm/moving_variance/Assign"
  input: "^DS-CNN/conv_ds_2/dw_conv/depthwise_weights/Assign"
  input: "^DS-CNN/conv_ds_2/dw_conv/biases/Assign"
  input: "^DS-CNN/conv_ds_2/dw_conv/batch_norm/beta/Assign"
  input: "^DS-CNN/conv_ds_2/dw_conv/batch_norm/moving_mean/Assign"
  input: "^DS-CNN/conv_ds_2/dw_conv/batch_norm/moving_variance/Assign"
  input: "^DS-CNN/conv_ds_2/pj_conv/weights/Assign"
  input: "^DS-CNN/conv_ds_2/pj_conv/biases/Assign"
  input: "^DS-CNN/conv_ds_2/pj_conv/batch_norm/beta/Assign"
  input: "^DS-CNN/conv_ds_2/pj_conv/batch_norm/moving_mean/Assign"
  input: "^DS-CNN/conv_ds_2/pj_conv/batch_norm/moving_variance/Assign"
  input: "^DS-CNN/conv_ds_2/res_conv/weights/Assign"
  input: "^DS-CNN/conv_ds_2/res_conv/biases/Assign"
  input: "^DS-CNN/conv_ds_3/exp_conv/weights/Assign"
  input: "^DS-CNN/conv_ds_3/exp_conv/biases/Assign"
  input: "^DS-CNN/conv_ds_3/exp_conv/batch_norm/beta/Assign"
  input: "^DS-CNN/conv_ds_3/exp_conv/batch_norm/moving_mean/Assign"
  input: "^DS-CNN/conv_ds_3/exp_conv/batch_norm/moving_variance/Assign"
  input: "^DS-CNN/conv_ds_3/dw_conv/depthwise_weights/Assign"
  input: "^DS-CNN/conv_ds_3/dw_conv/biases/Assign"
  input: "^DS-CNN/conv_ds_3/dw_conv/batch_norm/beta/Assign"
  input: "^DS-CNN/conv_ds_3/dw_conv/batch_norm/moving_mean/Assign"
  input: "^DS-CNN/conv_ds_3/dw_conv/batch_norm/moving_variance/Assign"
  input: "^DS-CNN/conv_ds_3/pj_conv/weights/Assign"
  input: "^DS-CNN/conv_ds_3/pj_conv/biases/Assign"
  input: "^DS-CNN/conv_ds_3/pj_conv/batch_norm/beta/Assign"
  input: "^DS-CNN/conv_ds_3/pj_conv/batch_norm/moving_mean/Assign"
  input: "^DS-CNN/conv_ds_3/pj_conv/batch_norm/moving_variance/Assign"
  input: "^DS-CNN/conv_ds_3/res_conv/weights/Assign"
  input: "^DS-CNN/conv_ds_3/res_conv/biases/Assign"
  input: "^DS-CNN/fc1/weights/Assign"
  input: "^DS-CNN/fc1/biases/Assign"
  input: "^global_step/Assign"
  input: "^train/beta1_power/Assign"
  input: "^train/beta2_power/Assign"
  input: "^DS-CNN/conv_1/weights/Adam/Assign"
  input: "^DS-CNN/conv_1/weights/Adam_1/Assign"
  input: "^DS-CNN/conv_1/biases/Adam/Assign"
  input: "^DS-CNN/conv_1/biases/Adam_1/Assign"
  input: "^DS-CNN/conv_1/batch_norm/beta/Adam/Assign"
  input: "^DS-CNN/conv_1/batch_norm/beta/Adam_1/Assign"
  input: "^DS-CNN/conv_ds_1/exp_conv/weights/Adam/Assign"
  input: "^DS-CNN/conv_ds_1/exp_conv/weights/Adam_1/Assign"
  input: "^DS-CNN/conv_ds_1/exp_conv/biases/Adam/Assign"
  input: "^DS-CNN/conv_ds_1/exp_conv/biases/Adam_1/Assign"
  input: "^DS-CNN/conv_ds_1/exp_conv/batch_norm/beta/Adam/Assign"
  input: "^DS-CNN/conv_ds_1/exp_conv/batch_norm/beta/Adam_1/Assign"
  input: "^DS-CNN/conv_ds_1/dw_conv/depthwise_weights/Adam/Assign"
  input: "^DS-CNN/conv_ds_1/dw_conv/depthwise_weights/Adam_1/Assign"
  input: "^DS-CNN/conv_ds_1/dw_conv/biases/Adam/Assign"
  input: "^DS-CNN/conv_ds_1/dw_conv/biases/Adam_1/Assign"
  input: "^DS-CNN/conv_ds_1/dw_conv/batch_norm/beta/Adam/Assign"
  input: "^DS-CNN/conv_ds_1/dw_conv/batch_norm/beta/Adam_1/Assign"
  input: "^DS-CNN/conv_ds_1/pj_conv/weights/Adam/Assign"
  input: "^DS-CNN/conv_ds_1/pj_conv/weights/Adam_1/Assign"
  input: "^DS-CNN/conv_ds_1/pj_conv/biases/Adam/Assign"
  input: "^DS-CNN/conv_ds_1/pj_conv/biases/Adam_1/Assign"
  input: "^DS-CNN/conv_ds_1/pj_conv/batch_norm/beta/Adam/Assign"
  input: "^DS-CNN/conv_ds_1/pj_conv/batch_norm/beta/Adam_1/Assign"
  input: "^DS-CNN/conv_ds_2/exp_conv/weights/Adam/Assign"
  input: "^DS-CNN/conv_ds_2/exp_conv/weights/Adam_1/Assign"
  input: "^DS-CNN/conv_ds_2/exp_conv/biases/Adam/Assign"
  input: "^DS-CNN/conv_ds_2/exp_conv/biases/Adam_1/Assign"
  input: "^DS-CNN/conv_ds_2/exp_conv/batch_norm/beta/Adam/Assign"
  input: "^DS-CNN/conv_ds_2/exp_conv/batch_norm/beta/Adam_1/Assign"
  input: "^DS-CNN/conv_ds_2/dw_conv/depthwise_weights/Adam/Assign"
  input: "^DS-CNN/conv_ds_2/dw_conv/depthwise_weights/Adam_1/Assign"
  input: "^DS-CNN/conv_ds_2/dw_conv/biases/Adam/Assign"
  input: "^DS-CNN/conv_ds_2/dw_conv/biases/Adam_1/Assign"
  input: "^DS-CNN/conv_ds_2/dw_conv/batch_norm/beta/Adam/Assign"
  input: "^DS-CNN/conv_ds_2/dw_conv/batch_norm/beta/Adam_1/Assign"
  input: "^DS-CNN/conv_ds_2/pj_conv/weights/Adam/Assign"
  input: "^DS-CNN/conv_ds_2/pj_conv/weights/Adam_1/Assign"
  input: "^DS-CNN/conv_ds_2/pj_conv/biases/Adam/Assign"
  input: "^DS-CNN/conv_ds_2/pj_conv/biases/Adam_1/Assign"
  input: "^DS-CNN/conv_ds_2/pj_conv/batch_norm/beta/Adam/Assign"
  input: "^DS-CNN/conv_ds_2/pj_conv/batch_norm/beta/Adam_1/Assign"
  input: "^DS-CNN/conv_ds_2/res_conv/weights/Adam/Assign"
  input: "^DS-CNN/conv_ds_2/res_conv/weights/Adam_1/Assign"
  input: "^DS-CNN/conv_ds_2/res_conv/biases/Adam/Assign"
  input: "^DS-CNN/conv_ds_2/res_conv/biases/Adam_1/Assign"
  input: "^DS-CNN/conv_ds_3/exp_conv/weights/Adam/Assign"
  input: "^DS-CNN/conv_ds_3/exp_conv/weights/Adam_1/Assign"
  input: "^DS-CNN/conv_ds_3/exp_conv/biases/Adam/Assign"
  input: "^DS-CNN/conv_ds_3/exp_conv/biases/Adam_1/Assign"
  input: "^DS-CNN/conv_ds_3/exp_conv/batch_norm/beta/Adam/Assign"
  input: "^DS-CNN/conv_ds_3/exp_conv/batch_norm/beta/Adam_1/Assign"
  input: "^DS-CNN/conv_ds_3/dw_conv/depthwise_weights/Adam/Assign"
  input: "^DS-CNN/conv_ds_3/dw_conv/depthwise_weights/Adam_1/Assign"
  input: "^DS-CNN/conv_ds_3/dw_conv/biases/Adam/Assign"
  input: "^DS-CNN/conv_ds_3/dw_conv/biases/Adam_1/Assign"
  input: "^DS-CNN/conv_ds_3/dw_conv/batch_norm/beta/Adam/Assign"
  input: "^DS-CNN/conv_ds_3/dw_conv/batch_norm/beta/Adam_1/Assign"
  input: "^DS-CNN/conv_ds_3/pj_conv/weights/Adam/Assign"
  input: "^DS-CNN/conv_ds_3/pj_conv/weights/Adam_1/Assign"
  input: "^DS-CNN/conv_ds_3/pj_conv/biases/Adam/Assign"
  input: "^DS-CNN/conv_ds_3/pj_conv/biases/Adam_1/Assign"
  input: "^DS-CNN/conv_ds_3/pj_conv/batch_norm/beta/Adam/Assign"
  input: "^DS-CNN/conv_ds_3/pj_conv/batch_norm/beta/Adam_1/Assign"
  input: "^DS-CNN/conv_ds_3/res_conv/weights/Adam/Assign"
  input: "^DS-CNN/conv_ds_3/res_conv/weights/Adam_1/Assign"
  input: "^DS-CNN/conv_ds_3/res_conv/biases/Adam/Assign"
  input: "^DS-CNN/conv_ds_3/res_conv/biases/Adam_1/Assign"
  input: "^DS-CNN/fc1/weights/Adam/Assign"
  input: "^DS-CNN/fc1/weights/Adam_1/Assign"
  input: "^DS-CNN/fc1/biases/Adam/Assign"
  input: "^DS-CNN/fc1/biases/Adam_1/Assign"
}
node {
  name: "Shape"
  op: "Const"
  attr {
    key: "dtype"
    value {
      type: DT_INT32
    }
  }
  attr {
    key: "value"
    value {
      tensor {
        dtype: DT_INT32
        tensor_shape {
          dim {
            size: 4
          }
        }
        tensor_content: "\n\000\000\000\004\000\000\000\001\000\000\000@\000\000\000"
      }
    }
  }
}
node {
  name: "Shape_1"
  op: "Const"
  attr {
    key: "dtype"
    value {
      type: DT_INT32
    }
  }
  attr {
    key: "value"
    value {
      tensor {
        dtype: DT_INT32
        tensor_shape {
          dim {
            size: 1
          }
        }
        int_val: 64
      }
    }
  }
}
node {
  name: "Shape_2"
  op: "Const"
  attr {
    key: "dtype"
    value {
      type: DT_INT32
    }
  }
  attr {
    key: "value"
    value {
      tensor {
        dtype: DT_INT32
        tensor_shape {
          dim {
            size: 1
          }
        }
        int_val: 64
      }
    }
  }
}
node {
  name: "Shape_3"
  op: "Const"
  attr {
    key: "dtype"
    value {
      type: DT_INT32
    }
  }
  attr {
    key: "value"
    value {
      tensor {
        dtype: DT_INT32
        tensor_shape {
          dim {
            size: 4
          }
        }
        tensor_content: "\001\000\000\000\001\000\000\000@\000\000\000\200\001\000\000"
      }
    }
  }
}
node {
  name: "Shape_4"
  op: "Const"
  attr {
    key: "dtype"
    value {
      type: DT_INT32
    }
  }
  attr {
    key: "value"
    value {
      tensor {
        dtype: DT_INT32
        tensor_shape {
          dim {
            size: 1
          }
        }
        int_val: 384
      }
    }
  }
}
node {
  name: "Shape_5"
  op: "Const"
  attr {
    key: "dtype"
    value {
      type: DT_INT32
    }
  }
  attr {
    key: "value"
    value {
      tensor {
        dtype: DT_INT32
        tensor_shape {
          dim {
            size: 1
          }
        }
        int_val: 384
      }
    }
  }
}
node {
  name: "Shape_6"
  op: "Const"
  attr {
    key: "dtype"
    value {
      type: DT_INT32
    }
  }
  attr {
    key: "value"
    value {
      tensor {
        dtype: DT_INT32
        tensor_shape {
          dim {
            size: 4
          }
        }
        tensor_content: "\003\000\000\000\003\000\000\000\200\001\000\000\001\000\000\000"
      }
    }
  }
}
node {
  name: "Shape_7"
  op: "Const"
  attr {
    key: "dtype"
    value {
      type: DT_INT32
    }
  }
  attr {
    key: "value"
    value {
      tensor {
        dtype: DT_INT32
        tensor_shape {
          dim {
            size: 1
          }
        }
        int_val: 384
      }
    }
  }
}
node {
  name: "Shape_8"
  op: "Const"
  attr {
    key: "dtype"
    value {
      type: DT_INT32
    }
  }
  attr {
    key: "value"
    value {
      tensor {
        dtype: DT_INT32
        tensor_shape {
          dim {
            size: 1
          }
        }
        int_val: 384
      }
    }
  }
}
node {
  name: "Shape_9"
  op: "Const"
  attr {
    key: "dtype"
    value {
      type: DT_INT32
    }
  }
  attr {
    key: "value"
    value {
      tensor {
        dtype: DT_INT32
        tensor_shape {
          dim {
            size: 4
          }
        }
        tensor_content: "\001\000\000\000\001\000\000\000\200\001\000\000@\000\000\000"
      }
    }
  }
}
node {
  name: "Shape_10"
  op: "Const"
  attr {
    key: "dtype"
    value {
      type: DT_INT32
    }
  }
  attr {
    key: "value"
    value {
      tensor {
        dtype: DT_INT32
        tensor_shape {
          dim {
            size: 1
          }
        }
        int_val: 64
      }
    }
  }
}
node {
  name: "Shape_11"
  op: "Const"
  attr {
    key: "dtype"
    value {
      type: DT_INT32
    }
  }
  attr {
    key: "value"
    value {
      tensor {
        dtype: DT_INT32
        tensor_shape {
          dim {
            size: 1
          }
        }
        int_val: 64
      }
    }
  }
}
node {
  name: "Shape_12"
  op: "Const"
  attr {
    key: "dtype"
    value {
      type: DT_INT32
    }
  }
  attr {
    key: "value"
    value {
      tensor {
        dtype: DT_INT32
        tensor_shape {
          dim {
            size: 4
          }
        }
        tensor_content: "\001\000\000\000\001\000\000\000@\000\000\000\200\001\000\000"
      }
    }
  }
}
node {
  name: "Shape_13"
  op: "Const"
  attr {
    key: "dtype"
    value {
      type: DT_INT32
    }
  }
  attr {
    key: "value"
    value {
      tensor {
        dtype: DT_INT32
        tensor_shape {
          dim {
            size: 1
          }
        }
        int_val: 384
      }
    }
  }
}
node {
  name: "Shape_14"
  op: "Const"
  attr {
    key: "dtype"
    value {
      type: DT_INT32
    }
  }
  attr {
    key: "value"
    value {
      tensor {
        dtype: DT_INT32
        tensor_shape {
          dim {
            size: 1
          }
        }
        int_val: 384
      }
    }
  }
}
node {
  name: "Shape_15"
  op: "Const"
  attr {
    key: "dtype"
    value {
      type: DT_INT32
    }
  }
  attr {
    key: "value"
    value {
      tensor {
        dtype: DT_INT32
        tensor_shape {
          dim {
            size: 4
          }
        }
        tensor_content: "\003\000\000\000\003\000\000\000\200\001\000\000\001\000\000\000"
      }
    }
  }
}
node {
  name: "Shape_16"
  op: "Const"
  attr {
    key: "dtype"
    value {
      type: DT_INT32
    }
  }
  attr {
    key: "value"
    value {
      tensor {
        dtype: DT_INT32
        tensor_shape {
          dim {
            size: 1
          }
        }
        int_val: 384
      }
    }
  }
}
node {
  name: "Shape_17"
  op: "Const"
  attr {
    key: "dtype"
    value {
      type: DT_INT32
    }
  }
  attr {
    key: "value"
    value {
      tensor {
        dtype: DT_INT32
        tensor_shape {
          dim {
            size: 1
          }
        }
        int_val: 384
      }
    }
  }
}
node {
  name: "Shape_18"
  op: "Const"
  attr {
    key: "dtype"
    value {
      type: DT_INT32
    }
  }
  attr {
    key: "value"
    value {
      tensor {
        dtype: DT_INT32
        tensor_shape {
          dim {
            size: 4
          }
        }
        tensor_content: "\001\000\000\000\001\000\000\000\200\001\000\000 \000\000\000"
      }
    }
  }
}
node {
  name: "Shape_19"
  op: "Const"
  attr {
    key: "dtype"
    value {
      type: DT_INT32
    }
  }
  attr {
    key: "value"
    value {
      tensor {
        dtype: DT_INT32
        tensor_shape {
          dim {
            size: 1
          }
        }
        int_val: 32
      }
    }
  }
}
node {
  name: "Shape_20"
  op: "Const"
  attr {
    key: "dtype"
    value {
      type: DT_INT32
    }
  }
  attr {
    key: "value"
    value {
      tensor {
        dtype: DT_INT32
        tensor_shape {
          dim {
            size: 1
          }
        }
        int_val: 32
      }
    }
  }
}
node {
  name: "Shape_21"
  op: "Const"
  attr {
    key: "dtype"
    value {
      type: DT_INT32
    }
  }
  attr {
    key: "value"
    value {
      tensor {
        dtype: DT_INT32
        tensor_shape {
          dim {
            size: 4
          }
        }
        tensor_content: "\001\000\000\000\001\000\000\000 \000\000\000 \000\000\000"
      }
    }
  }
}
node {
  name: "Shape_22"
  op: "Const"
  attr {
    key: "dtype"
    value {
      type: DT_INT32
    }
  }
  attr {
    key: "value"
    value {
      tensor {
        dtype: DT_INT32
        tensor_shape {
          dim {
            size: 1
          }
        }
        int_val: 32
      }
    }
  }
}
node {
  name: "Shape_23"
  op: "Const"
  attr {
    key: "dtype"
    value {
      type: DT_INT32
    }
  }
  attr {
    key: "value"
    value {
      tensor {
        dtype: DT_INT32
        tensor_shape {
          dim {
            size: 4
          }
        }
        tensor_content: "\001\000\000\000\001\000\000\000 \000\000\000\300\000\000\000"
      }
    }
  }
}
node {
  name: "Shape_24"
  op: "Const"
  attr {
    key: "dtype"
    value {
      type: DT_INT32
    }
  }
  attr {
    key: "value"
    value {
      tensor {
        dtype: DT_INT32
        tensor_shape {
          dim {
            size: 1
          }
        }
        int_val: 192
      }
    }
  }
}
node {
  name: "Shape_25"
  op: "Const"
  attr {
    key: "dtype"
    value {
      type: DT_INT32
    }
  }
  attr {
    key: "value"
    value {
      tensor {
        dtype: DT_INT32
        tensor_shape {
          dim {
            size: 1
          }
        }
        int_val: 192
      }
    }
  }
}
node {
  name: "Shape_26"
  op: "Const"
  attr {
    key: "dtype"
    value {
      type: DT_INT32
    }
  }
  attr {
    key: "value"
    value {
      tensor {
        dtype: DT_INT32
        tensor_shape {
          dim {
            size: 4
          }
        }
        tensor_content: "\003\000\000\000\003\000\000\000\300\000\000\000\001\000\000\000"
      }
    }
  }
}
node {
  name: "Shape_27"
  op: "Const"
  attr {
    key: "dtype"
    value {
      type: DT_INT32
    }
  }
  attr {
    key: "value"
    value {
      tensor {
        dtype: DT_INT32
        tensor_shape {
          dim {
            size: 1
          }
        }
        int_val: 192
      }
    }
  }
}
node {
  name: "Shape_28"
  op: "Const"
  attr {
    key: "dtype"
    value {
      type: DT_INT32
    }
  }
  attr {
    key: "value"
    value {
      tensor {
        dtype: DT_INT32
        tensor_shape {
          dim {
            size: 1
          }
        }
        int_val: 192
      }
    }
  }
}
node {
  name: "Shape_29"
  op: "Const"
  attr {
    key: "dtype"
    value {
      type: DT_INT32
    }
  }
  attr {
    key: "value"
    value {
      tensor {
        dtype: DT_INT32
        tensor_shape {
          dim {
            size: 4
          }
        }
        tensor_content: "\001\000\000\000\001\000\000\000\300\000\000\000\020\000\000\000"
      }
    }
  }
}
node {
  name: "Shape_30"
  op: "Const"
  attr {
    key: "dtype"
    value {
      type: DT_INT32
    }
  }
  attr {
    key: "value"
    value {
      tensor {
        dtype: DT_INT32
        tensor_shape {
          dim {
            size: 1
          }
        }
        int_val: 16
      }
    }
  }
}
node {
  name: "Shape_31"
  op: "Const"
  attr {
    key: "dtype"
    value {
      type: DT_INT32
    }
  }
  attr {
    key: "value"
    value {
      tensor {
        dtype: DT_INT32
        tensor_shape {
          dim {
            size: 1
          }
        }
        int_val: 16
      }
    }
  }
}
node {
  name: "Shape_32"
  op: "Const"
  attr {
    key: "dtype"
    value {
      type: DT_INT32
    }
  }
  attr {
    key: "value"
    value {
      tensor {
        dtype: DT_INT32
        tensor_shape {
          dim {
            size: 4
          }
        }
        tensor_content: "\001\000\000\000\001\000\000\000\020\000\000\000\020\000\000\000"
      }
    }
  }
}
node {
  name: "Shape_33"
  op: "Const"
  attr {
    key: "dtype"
    value {
      type: DT_INT32
    }
  }
  attr {
    key: "value"
    value {
      tensor {
        dtype: DT_INT32
        tensor_shape {
          dim {
            size: 1
          }
        }
        int_val: 16
      }
    }
  }
}
node {
  name: "Shape_34"
  op: "Const"
  attr {
    key: "dtype"
    value {
      type: DT_INT32
    }
  }
  attr {
    key: "value"
    value {
      tensor {
        dtype: DT_INT32
        tensor_shape {
          dim {
            size: 2
          }
        }
        tensor_content: "\020\000\000\000\014\000\000\000"
      }
    }
  }
}
node {
  name: "Shape_35"
  op: "Const"
  attr {
    key: "dtype"
    value {
      type: DT_INT32
    }
  }
  attr {
    key: "value"
    value {
      tensor {
        dtype: DT_INT32
        tensor_shape {
          dim {
            size: 1
          }
        }
        int_val: 12
      }
    }
  }
}
versions {
  producer: 24
}
